Reranking/data/checkpoints/amazon/best.pth (torch, 804607 bytes, 6 tensors)

score_vec_enc.weight f4 [256, 4]
000000 c8 89 c4 3e 91 7d c7 3e 60 8d 16 be 89 8b 2b 3f
       0.3838637 0.38962987 -0.14702368 0.6700979
000010 67 a8 e0 bc 66 5c 06 3e 70 fb 67 be 32 4d 17 3f
       -0.02742405 0.13121185 -0.2265451 0.59102166
000020 89 7b dc 3e 38 d8 8f be ad 2e db 3e 12 3e b7 3f
       0.43063 -0.2809465 0.42809048 1.4315817
000030 af 18 c0 3e 60 42 05 3e a2 e6 87 3e ea 16 fa bf
       0.37518832 0.13013601 0.26543146 -1.9538243
000040 0f d4 c0 3e 73 77 8a 3d 7f 16 82 be cd bb b2 3b
       0.37661788 0.067610644 -0.25407788 0.0054545165
000050 ac e5 6b be c0 2c 70 bd fc f3 4f be ae d2 a9 3e
       -0.23036832 -0.058636427 -0.20307916 0.33168548
000060 2a 14 ca be a4 bb 59 be bc 1c 3b bc 2e dd 74 be
       -0.3946851 -0.21262985 -0.011420425 -0.23912498
000070 65 f2 2e bd 39 aa ff be 42 80 e9 3e 8b 0c 49 bf
       -0.042711634 -0.49934557 0.45605665 -0.78534764
000080 84 db ca 3e 51 cf c9 3d 01 b3 25 be 75 d3 16 3f
       0.39620602 0.098539956 -0.16181566 0.5891641
000090 d4 66 a1 3d e1 c8 c5 3e 68 a8 10 3d 0c dc 41 40
       0.07880941 0.3862982 0.035316855 3.0290556
0000a0 87 5f 09 3e d8 93 09 be 69 a2 37 3e 56 dd 0b 40
       0.13415347 -0.13435304 0.17933048 2.1853843
0000b0 6e 25 96 3e d3 67 3e be 8a e7 8b 3e 83 e3 dc 3f
       0.29325432 -0.18594293 0.27325088 1.7256931
0000c0 0c d5 84 3e a1 5d bf be 97 c4 e4 be c2 4b 18 be
       0.25943792 -0.3737612 -0.44681236 -0.1487265
0000d0 34 2c b6 be 03 37 da 3e 95 e6 27 3e 9d a9 d3 bf
       -0.355806 0.42620096 0.16396554 -1.6536137
0000e0 5b 4e 26 3e ac 4a 5e bc e0 78 b9 3e ba 9b 39 40
       0.16240828 -0.013567608 0.36225033 2.9001298
0000f0 00 61 f0 3c 99 17 22 bf ba 73 e0 3d 04 c6 e0 be
       0.029343128 -0.6331726 0.10959573 -0.43901074
000100 79 39 1d 3e 18 e4 02 bd d5 3a e5 3e 7e 71 b6 bf
       0.15353955 -0.03195581 0.44771448 -1.4253385
000110 c5 1c 9e be ab 00 96 be 9b 63 dc 3e 39 1c da 3f
       -0.30881324 -0.29297385 0.43044743 1.7039863
000120 64 d0 cd 3e d8 bd 14 bf 83 60 0d bf eb ef dd be
       0.40198052 -0.5810218 -0.5522539 -0.43347105
000130 3e af 8a be dc aa 43 3e 15 f5 1f 3e f4 e2 6f 40
       -0.27086824 0.19108146 0.15620835 3.7482271
000140 0d 71 12 be 2f 2c c5 be 3c 50 79 3e 75 53 21 bf
       -0.14300938 -0.38510272 0.24347013 -0.6301797
000150 cc 36 ac 3e 50 ad 8c bd 99 66 88 3e d1 70 35 bf
       0.33635557 -0.06868994 0.26640776 -0.7087527
000160 9b 57 4a be 44 83 10 3e 90 86 a9 3d e7 69 51 40
       -0.19759981 0.14112574 0.08277619 3.2720888
000170 02 af 9c 3e 6a d2 b5 3e b6 48 a0 be 96 8f c9 be
       0.3060227 0.35512096 -0.31305474 -0.3936736
000180 42 98 e1 3e 2d aa 6c be a0 2b 13 be 22 f6 e8 be
       0.44061476 -0.23111792 -0.1437211 -0.45500284
000190 e9 9e 80 be fa 87 b6 3d d8 75 0c be 55 d2 e3 be
       -0.2512124 0.08912654 -0.13716829 -0.44496408
0001a0 61 3e a0 3d d4 bb 8a be 88 65 a7 be a4 7e 28 be
       0.07824398 -0.27096426 -0.3269465 -0.1645456
0001b0 53 32 fd be 7e 4d a3 be 6b 38 f5 3e 0a a2 b1 3f
       -0.49452457 -0.3189506 0.47894606 1.3877575
0001c0 d9 36 26 3e 60 67 09 bf ac 2d 7b be 95 23 18 be
       0.1623186 -0.5367336 -0.24529141 -0.14857323
0001d0 43 99 a0 3d ef 5b dc be 04 93 69 be 6d 21 9a be
       0.07841732 -0.4303889 -0.22809988 -0.30103627
0001e0 60 18 8a bc eb 60 15 be 30 a0 ef bc 24 04 15 be
       -0.016857326 -0.14587753 -0.029251188 -0.14552361
0001f0 98 b7 af be d2 59 95 be 9c 41 2f be 50 0e ca be
       -0.34319758 -0.2917009 -0.17114872 -0.39464045
000200 30 1e db 3e 60 96 b8 bd a0 0f cd 3e 6b d9 28 40
       0.4279647 -0.09013057 0.40050983 2.6382701
000210 07 0d cb be d5 62 bb 3e 34 12 26 bd 03 30 9c bd
       -0.39658377 0.3659884 -0.040544704 -0.07626345
000220 23 04 dd be d1 5d ec be 35 8a ec 3d 68 fc 98 3e
       -0.4316722 -0.46165326 0.115497984 0.2988007
000230 c5 16 5a 3e 10 72 d1 be 57 f8 b2 3e cf 6d 38 bf
       0.21297748 -0.40907335 0.34955093 -0.72042555
000240 55 9c a3 bd dd d9 1b 3e 17 8b 8e 3e 28 41 f1 bf
       -0.07988802 0.15219827 0.27840492 -1.8848009
000250 13 cd d8 3e 80 af 24 bf b6 bc bc 3d 43 f6 21 bf
       0.4234396 -0.6433029 0.09215681 -0.6326639
000260 f8 68 8b bc 41 09 9a be ae fa e0 3e c5 60 42 3f
       -0.017017826 -0.30085185 0.43941253 0.7592891
000270 8c 7e 8d 3e cc 3b 59 3e 2d 99 33 3e b4 ed 20 c0
       0.2763561 0.21214217 0.175389 -2.5145082
000280 9f e3 e8 3e c8 4a c6 3d 6a e8 34 3d 2c 74 36 40
       0.4548616 0.09682232 0.04416696 2.8508406
000290 dc 00 10 3e f2 0a 53 be f7 db 85 be 4d 56 f6 3e
       0.14062828 -0.20609644 -0.26144382 0.48112717
0002a0 ce f6 23 3e 54 6c a0 be 00 f0 44 be aa 30 69 3d
       0.16012117 -0.31332648 -0.19232178 0.056931175
0002b0 05 d2 4e 3e e9 70 96 be 0d 60 ac be f2 29 7e be
       0.20197304 -0.2938302 -0.3366703 -0.24820688
0002c0 1c 90 c7 be 0e a4 55 3e b7 7f d2 3e 59 0c 4a c0
       -0.38977134 0.20863363 0.41113064 -3.1570036
0002d0 d8 62 f5 3d 0d 5b 7b 3e 32 86 96 3d 63 81 4f 40
       0.119817436 0.24546452 0.073498145 3.2422721
0002e0 d3 28 89 3e f7 5c 7e 3e 6b 24 26 3e b3 65 54 40
       0.2678896 0.24840151 0.1622483 3.3187072
0002f0 a6 22 65 be c0 ad 13 3d 54 24 00 be 75 86 5c 3d
       -0.22376499 0.036054373 -0.12513858 0.053839166
000300 ea dc ae 3e bb 93 d6 3e fc 8d 6f bd d0 cb 35 bd
       0.3415292 0.41909584 -0.058485016 -0.044383824
000310 d9 59 3a 3c ac 86 42 bd 6c d2 c1 3d 7c 11 5c 40
       0.01137396 -0.047491714 0.09463963 3.4385672
000320 3d d5 05 bf c9 9e 72 be 04 75 ba 3e ec 30 cf 3f
       -0.522785 -0.23693384 0.364174 1.6186805
000330 a0 b9 cb bc 08 58 9a be 42 9f 9c be fa 50 e5 be
       -0.024868786 -0.30145288 -0.30590254 -0.44788343
000340 04 c4 5f be 4d 70 4f 3e 0e ca ad 3e 4e c2 17 c0
       -0.21852118 0.20257683 0.33943218 -2.3712344
000350 28 4a e2 be 0d 5c b1 be 4e 48 cd bd 08 3d 2b 3f
       -0.44197202 -0.34640542 -0.10023557 0.6689
000360 90 11 0c 3d a9 53 14 be c4 8c 40 3e 72 06 01 3f
       0.034196436 -0.14485039 0.18803698 0.5040046
000370 d0 b5 02 bf 62 fa a4 3e 05 37 9a be df 85 a8 be
       -0.51058674 0.32222277 -0.30120102 -0.32914636
000380 3e 8f e7 be 8d b4 a0 3e b1 70 98 3e 8b 64 5b 40
       -0.45226473 0.3138775 0.29773477 3.4280117
000390 90 80 b2 be 18 a8 fc be 31 a0 9e be a7 2a f3 3e
       -0.3486371 -0.49346995 -0.3098159 0.4749348
0003a0 d7 a0 75 3e d2 7e e2 3e 83 fa 90 3e fd f7 23 c0
       0.23987137 0.4423738 0.28316125 -2.562011
0003b0 80 71 a0 bb 86 b0 c2 be 6c 55 db be 02 73 ef be
       -0.0048963428 -0.38025302 -0.4283861 -0.46767431
0003c0 9d 45 1f 3e aa 61 bd be f1 fd fa bd 54 3f 96 be
       0.15553899 -0.36988574 -0.12255467 -0.2934519
0003d0 61 5c 93 bd 93 c1 a9 be 84 e3 61 be a7 29 89 3e
       -0.07195354 -0.33155498 -0.22059447 0.2678959
0003e0 34 06 f8 bd b3 6f b0 3e e2 ea 64 bd d3 12 8b be
       -0.12110558 0.3446022 -0.055888064 -0.271628
0003f0 68 ac b4 bd d0 30 78 be 60 a4 1c be fc b5 f3 be
       -0.088219464 -0.2423737 -0.15297079 -0.4759978

score_vec_enc.bias f4 [256]
000000 b9 62 49 3e d2 0b 15 3e 73 57 f2 3d a1 fc 74 3e
       0.19666566 0.1455529 0.11833086 0.23924495
000010 f3 cd 36 3b f8 d7 9a be 94 0e 16 3f 80 ea 49 be
       0.0027893751 -0.30242896 0.58615994 -0.19718361
000020 ee 5d 9a 3d 6a 8f a4 be a2 33 c9 bd a0 c8 c6 3e
       0.07537447 -0.32140666 -0.09824301 0.3882494
000030 cb f1 89 3e 32 99 f7 be bd 08 31 3d de 06 64 be
       0.26942286 -0.48359066 0.043221224 -0.22268245
000040 38 1b 33 bd 64 83 8b 3e fb df 82 bd 3e 0f 1b 3e
       -0.04372713 0.2724868 -0.06390377 0.15142533
000050 56 02 91 be ab b3 c9 bc 40 2f 99 3d 4f 6c 15 3e
       -0.28322095 -0.024621805 0.07479715 0.14592098
000060 4c dc 04 3e bb f7 b2 be c2 c4 18 3f 24 a2 5e be
       0.12974662 -0.34954628 0.5967523 -0.21741539
000070 02 b7 9a be 54 5a 6f be 44 53 8c 3f 00 00 ca 37
       -0.3021775 -0.23374301 1.0962911 2.4080276e-05
000080 d8 c7 fa bb 97 19 aa bd c4 89 e1 bd 15 48 ee be
       -0.0076532178 -0.08305662 -0.11012605 -0.4653937
000090 8b 56 be 3d 35 ac 2f 3e 47 f4 94 3e a2 aa 36 3f
       0.092938505 0.17155536 0.2909262 0.71354115
0000a0 54 7b 45 be 7c a2 9b 3e 66 81 79 be 1d 08 43 3e
       -0.19285327 0.30397403 -0.24365768 0.19046064
0000b0 fd ad 3e 3f cb cc fa 3e 2a b1 e6 3e a7 24 e1 3e
       0.74484235 0.4898437 0.4505704 0.43973276
0000c0 1b e5 b0 3d 3a 97 78 3e 7f 2f a9 be 50 f1 5e 3e
       0.086374484 0.24276438 -0.3304405 0.21771741
0000d0 eb 35 56 3e ac b9 d3 3e 23 ae 19 bf 7f e9 87 be
       0.20919006 0.41352594 -0.60031337 -0.2654533
0000e0 48 bc 68 be 8b 63 89 bd bd 76 b1 be fa 41 e6 be
       -0.22728074 -0.067084394 -0.34660903 -0.4497221
0000f0 08 6b 09 bb 3e 02 da 3e eb 15 17 3f ce 63 95 3e
       -0.0020968337 0.42579836 0.5901782 0.29177707
000100 d7 6c a1 be 6b 88 00 bf 90 97 2d 3e 54 a2 52 3e
       -0.3152835 -0.5020816 0.16952348 0.20569736
000110 91 bf b6 be 77 ff 29 3f 41 28 8b 3f 77 f8 6b 3d
       -0.3569303 0.66405433 1.087166 0.05761
000120 db 05 9d be 75 53 9e 3e b7 56 83 3e e7 4d c2 3e
       -0.3066853 0.30923048 0.25652096 0.3795006
000130 a8 16 15 be 92 be 53 3e f7 e2 09 3c 73 f7 67 3f
       -0.14559424 0.20678166 0.008415929 0.9061195
000140 c4 5c c9 be d6 41 9a 3e 87 85 9a 3e 78 76 7f 3c
       -0.39328587 0.30128354 0.30179998 0.01559221
000150 7b 09 19 be e8 4b 52 3e b9 e0 dc be 3e 8f 0e bf
       -0.14945023 0.20536768 -0.431402 -0.5568732
000160 0c 29 21 3d 1f d4 62 3e 48 cb 06 be c4 b4 95 3e
       0.039345786 0.2215123 -0.13163483 0.29239476
000170 92 09 85 bd 83 f1 cd 3e 25 2a ab 3e 3e 7d 12 3e
       -0.06495966 0.4022332 0.3343059 0.14305589
000180 06 75 9e be 2d 47 fc be 2c 7d 20 be 22 3d 8f be
       -0.30948657 -0.49273053 -0.1567275 -0.27976328
000190 3d 4a 86 3e 82 02 f6 be be 85 c6 3e c7 01 0f 3f
       0.26228514 -0.48048788 0.38773912 0.55862087
0001a0 6f d7 e6 3e 29 70 3b 3e 94 a9 18 bf 8e 67 06 3f
       0.45086238 0.18304504 -0.59633756 0.5250176
0001b0 1b e3 1b 3e be e9 f5 be 1e ad f3 3e bb 72 0d be
       0.15223353 -0.48029894 0.47593015 -0.13813297
0001c0 af 5a 7c 3d ab 7d 52 3f f2 ca af be 01 8b 6e be
       0.06160992 0.82223004 -0.34334522 -0.23295213
0001d0 fb 93 f8 3d 42 8c b1 3c 99 67 8f 3c 64 b5 d6 be
       0.121376 0.021673325 0.017505454 -0.41935265
0001e0 26 7f 63 bd 64 a8 89 be 28 ff 1a bf e8 71 06 bf
       -0.05554118 -0.26886284 -0.6054559 -0.5251756
0001f0 3d eb 58 3e c9 02 b0 3d 60 3f 93 be 09 d4 28 3f
       0.21183486 0.08594281 -0.2875929 0.6594854
000200 51 82 62 3e 0c 56 e2 3d 6c 65 b9 be 3a a5 bb bd
       0.22120024 0.110515684 -0.3621019 -0.09162374
000210 4d 81 19 3f 55 b6 c4 3e 03 ec e5 be 5c b5 51 3f
       0.5996292 0.38420358 -0.44906625 0.8191736
000220 57 65 19 3e 1b 7f 86 3e e9 41 dd 3e c3 8c 46 3f
       0.14980064 0.2626885 0.43214348 0.77558535
000230 ba 4e 9b be 8d cb 08 3f 68 de ad be 14 87 c1 3e
       -0.303335 0.53435594 -0.33958745 0.3779837
000240 49 48 0a bf 36 ff c8 bb 01 fb 68 3e 91 bc bb 3d
       -0.5401655 -0.006133939 0.22752 0.091668256
000250 73 e7 b8 bd 3e 02 f3 bc 9a d3 3b 3f fc 30 b7 3e
       -0.090285204 -0.029664155 0.73369753 0.3577956
000260 4f 4a 99 3e 14 85 87 3e fa 05 51 3f c0 06 bd bc
       0.29939505 0.26468718 0.81649745 -0.023074508
000270 17 fd 34 3f 60 50 f4 3c 0f c4 bb be fa 38 ce be
       0.70698684 0.029823482 -0.36673018 -0.40277845
000280 e2 81 9a bd 57 14 c3 be 2c 43 34 3d 01 3d 9f 3d
       -0.075443044 -0.38101456 0.044009373 0.077753074
000290 51 54 1d 3f 66 2b 18 3f e6 18 c3 3e e9 7d b6 3e
       0.6145678 0.5944122 0.38104934 0.35642937
0002a0 40 0e 02 3f c2 7a c4 be a6 64 0e be 3a 2b 86 be
       0.50802994 -0.38374907 -0.13905582 -0.26204854
0002b0 25 62 dd be 96 93 d7 bd 2a be ac bd 14 02 3c be
       -0.4323894 -0.10526197 -0.084347084 -0.18360168
0002c0 46 6c c2 be 52 a1 db bd af e5 ca bd a3 1e f4 3e
       -0.3797323 -0.10724129 -0.0990709 0.47679624
0002d0 8d 19 87 be a0 8a 83 be 31 31 57 3d 89 df 02 3d
       -0.2638668 -0.256917 0.052537147 0.03195146
0002e0 bf 70 e6 3e f6 49 f4 3e 47 bc 2c 3f 82 40 d2 be
       0.45007893 0.47712678 0.6747479 -0.4106484
0002f0 54 0e 96 3e e1 4f 01 3f 7c d7 7c be b2 7b 04 3f
       0.29307806 0.5051251 -0.24691576 0.51751244
000300 23 3b e2 3e 80 6c b3 3b 18 1a 38 3e b1 59 91 be
       0.44185743 0.0054755807 0.17978704 -0.28388742
000310 2c 99 11 bf 59 49 a3 3e 9c 2e 8f 3e 2b b0 88 be
       -0.56874347 0.31891897 0.27965248 -0.26696905
000320 03 cf fa 3e d6 55 a6 be 30 3c b5 3e a0 1e 09 3f
       0.48986062 -0.32487363 0.35397482 0.53562355
000330 01 6f bb 3d cd b0 ce be 1f 71 4a 3e 23 64 91 bc
       0.09152032 -0.40369263 0.19769715 -0.017747944
000340 28 5a 73 3e 53 64 33 3d 13 51 cc 3e 71 1d a0 be
       0.2376486 0.04379685 0.39905605 -0.31272462
000350 b8 3f 08 bd 1e 12 9d 3e 64 28 1a 3e 95 86 e4 3e
       -0.033263892 0.30677885 0.1505447 0.44633928
000360 d5 da ae be 00 5d 0d 3f ff 89 85 3e ef d6 3a bd
       -0.3415133 0.5522003 0.26081845 -0.045615133
000370 47 8a 00 3f 6b cf dc 3d d1 e9 dd be 92 a8 41 3d
       0.50210994 0.10781749 -0.4334245 0.0472799
000380 9c 38 68 be 6a 31 b2 3d 78 e1 fc bd 66 ef fd be
       -0.22677845 0.08700831 -0.12347692 -0.4959671
000390 22 95 05 bd 88 fb 88 3d 1a 72 62 be 7f ba de 3e
       -0.032612927 0.06688601 -0.22113839 0.4350166
0003a0 53 7e a6 bc 5e 70 4b 3f 5b 88 01 bd 1c 19 d8 be
       -0.020323908 0.79468334 -0.03162418 -0.42206657
0003b0 d4 62 b8 3e dd 5e cd 3e 6e 0f 21 be 7f 45 02 bd
       0.360129 0.40111437 -0.15728542 -0.031804558
0003c0 1a 97 d5 3e 86 82 c5 3e 08 0c e6 be d1 3e 23 3e
       0.41716844 0.38576144 -0.44931054 0.15941931
0003d0 2c 43 90 bd b9 29 41 bf c7 43 7c 3d 12 80 34 3f
       -0.07044062 -0.7545429 0.061588075 0.7050792
0003e0 6a e3 62 be c5 5a fa 3d 1e 5a e9 be f7 69 40 3f
       -0.22157064 0.12224344 -0.45576566 0.7516169
0003f0 31 70 a5 3e 0f 5d 81 3e 8c db 25 3e 6c a0 28 3e
       0.32312158 0.2526631 0.16197032 0.16467446

text_emb_enc.weight f4 [256, 768]
000000 7c 40 dd bc f6 f9 07 bc d5 4a 89 bb ec f6 9c bc
       -0.027008288 -0.008299341 -0.004189829 -0.01916071
000010 83 37 e1 bc a5 af bf 3c ab ae c6 3c d5 df 03 bd
       -0.02749229 0.023399184 0.02425321 -0.032195885
000020 8c 45 3b 3c 76 ab 7e 3c db 10 0d 3d 27 b1 a4 3c
       0.0114301555 0.015543809 0.034439903 0.020104004
000030 44 4f 04 3d 90 4d 50 bc 41 3c d6 3c 50 4f f1 3c
       0.032302156 -0.012713805 0.026151778 0.029456764
000040 81 0e 08 bd 27 ad f4 bc ba 0a d2 3b 23 4f 9a 3c
       -0.033216957 -0.029867722 0.00640997 0.018836563
000050 84 9d 8b bc 3e 07 9c 3b ff 8b 6a ba d8 22 15 3c
       -0.017042883 0.0047616055 -0.00089472526 0.009102546
000060 7c 61 a6 bc c6 12 a0 3c fd 71 c3 3c 59 ec c5 bc
       -0.020310156 0.019540202 0.023858065 -0.02416055
000070 50 d9 a0 3a e0 e4 4e ba 95 1e 33 3c ad 0b 06 3d
       0.0012271795 -0.00078923814 0.010932584 0.03272598
000080 e9 e9 1e 3c ae 38 15 bc eb 71 08 3d 5c 57 54 bc
       0.009699323 -0.009107752 0.033311766 -0.012960281
000090 01 d6 1e bc a4 2c 5e 3b e0 9f d9 bc 89 4c 97 3b
       -0.009694577 0.003390112 -0.026565492 0.004617278
0000a0 1d e1 c1 bc 42 78 96 3b dc 8c 2d 3b ff 30 c0 3b
       -0.023666913 0.0045919726 0.0026481664 0.005865216
0000b0 53 48 f2 bc 76 de 08 bd a1 57 8f 3c 5e 8f f8 3c
       -0.029575502 -0.03341528 0.01749784 0.0303418
0000c0 dd dd 02 bd 2c 8e 4c 3c e4 f3 d2 bc 48 bb be 3a
       -0.031949867 0.012485068 -0.025751062 0.0014551664
0000d0 b1 9c 0a 3d 79 4a e5 3c 1d f6 de bc 6e 67 af 3c
       0.03384084 0.027989613 -0.027216965 0.021411624
0000e0 7b 43 93 3c dd 4e 52 3a d9 af 0b 3d dc f9 62 bc
       0.017976513 0.0008022616 0.03410325 -0.013853516
0000f0 d0 4d f9 bb 97 01 96 bc ac d0 b3 3b 46 6c 20 3c
       -0.007608153 -0.018311305 0.005487522 0.009791439
000100 f2 0f 00 3b 6b 6a a6 bc ba b6 8a bc a9 cf 39 3c
       0.0019540754 -0.020314416 -0.016932834 0.011341014
000110 14 d0 fb bc d9 3d af bb 83 68 ab 38 90 fa 5f bc
       -0.030738868 -0.005347949 8.173382e-05 -0.013670579
000120 c1 9d 48 3c ca 22 12 3b 2c a6 c8 3c a2 e3 62 bb
       0.012244643 0.0022298568 0.0244933 -0.0034620543
000130 6d 87 b3 bc 90 41 ca 3c 04 8d 89 3b 88 2e 1a bc
       -0.021915162 0.024689466 0.0041977186 -0.009410508
000140 b7 c5 c1 bc a4 26 f7 3b c9 c7 0f bd dc 27 0e 3c
       -0.023653848 0.007542448 -0.03510264 0.008676495
000150 42 2b 8b 3c 68 3a 05 bd 0f e1 c8 bc 04 51 dc bc
       0.0169884 -0.032526404 -0.024521379 -0.0268941
000160 4d 53 fb 3c 53 d3 f3 3c eb 95 b5 3a dc 8e 0d 3d
       0.03067937 0.029763853 0.0013853883 0.03456007
000170 fe c0 53 bc 1c a9 0f bd 87 94 5b 3c 96 7a 5b 3c
       -0.012924431 -0.035073385 0.013402111 0.013395926
000180 cf c7 0f 3d 37 ce 5f ba a0 9b e4 3c 7e d2 b2 3c
       0.03510266 -0.00085375033 0.027906239 0.021828886
000190 3d b3 d6 3c 27 44 0f bd 10 0d f4 3c fa 7d 01 bd
       0.026208514 -0.034977105 0.029791385 -0.03161428
0001a0 78 e9 07 3d 56 59 b8 ba 07 ab 06 bd dd 98 17 3c
       0.033181638 -0.001406471 -0.032877948 0.009252754
0001b0 a6 9b f5 bb 16 32 08 bd 19 37 64 bc fa c7 96 3b
       -0.0074953614 -0.03325089 -0.013929152 0.004601476
0001c0 5e f9 df 3c 22 17 38 bc 0a 07 b7 3c 50 5d 6f 3b
       0.027340587 -0.011235984 0.022342224 0.0036524124
0001d0 37 af 08 3b 3b 23 c4 3b 11 64 bb bc 59 66 fc bc
       0.002085639 0.005985645 -0.022874864 -0.030810522
0001e0 6d 25 2c bc 21 08 06 bd 54 7d 82 bc f5 d3 58 3a
       -0.01050697 -0.032722596 -0.015928902 0.000827133
0001f0 c1 ec c9 bc da 5f 81 bc cf 60 b7 bb d1 dc a4 bb
       -0.024649026 -0.015792776 -0.0055962573 -0.005031206
000200 cb 64 aa bc 63 15 28 3b bf bd ae bb db cd 1a 3c
       -0.020800015 0.0025647513 -0.005332678 0.009448494
000210 cd 55 c0 3a 62 09 9b bc 79 30 56 bc c8 b3 aa ba
       0.0014674008 -0.018925373 -0.01307308 -0.001302355
000220 b9 04 b5 bc d9 0a 72 3b 47 d2 52 bb d4 1b 74 3c
       -0.022096979 0.0036932735 -0.0032168792 0.014899213
000230 d0 b0 1a 3c 41 05 d6 3c ae 88 8e b9 03 ea d2 bc
       0.009441569 0.026125552 -0.00027186185 -0.025746351
000240 75 d4 79 3c 28 48 c1 bc 04 31 c0 bb 13 a9 4e bc
       0.015248408 -0.023593977 -0.005865218 -0.012613553
000250 a5 17 52 bc 08 90 68 bc e5 13 04 3d e3 28 a2 3c
       -0.01282302 -0.014194496 0.032245535 0.019794887
000260 75 d8 32 3c 97 3c 0e 3d 00 9d 02 bd 63 f0 d7 3b
       0.010915865 0.03472575 -0.031888008 0.0065899356
000270 b4 91 be 3c 3a a5 ca 3c 30 05 e4 bc 40 1e 44 3c
       0.023262836 0.02473699 -0.027834505 0.011970103
000280 db d3 af bc 4c e8 15 bb a6 d6 dc bb ba 22 fe bc
       -0.021463325 -0.0022874055 -0.0067394553 -0.031022418
000290 9e 56 09 bd 5c 66 bc bc 03 9e 8c 3c a6 c4 7c 3c
       -0.03352987 -0.022998028 0.01716519 0.015427744
0002a0 06 4d 02 bd 5c de 4f bc 98 db e6 39 6e 57 f9 bc
       -0.031811737 -0.012687292 0.0004403263 -0.030437198
0002b0 56 e4 9e 3c 8b a2 06 3d 4f 08 bc 3b e9 e8 e2 bc
       0.019395988 0.032869857 0.005738295 -0.02769895
0002c0 67 3f f8 3b 1b 4d 48 3c 47 59 f0 3c 31 c8 9e bc
       0.0075759175 0.012225415 0.029339446 -0.019382568
0002d0 0c be 00 bd eb 1d 75 3c f5 d6 42 3b 22 f7 4b bc
       -0.031431243 0.014960746 0.0029730175 -0.012449058
0002e0 27 24 81 bc 91 fe 91 bc 19 cb e7 3c e6 11 b3 bb
       -0.01576431 -0.017821582 0.028295087 -0.00546478
0002f0 34 0d d4 3c 24 78 07 3d b0 4e b3 3b 3c ea 0c 3c
       0.025885202 0.03307356 0.0054720268 0.008600768
000300 db 08 c6 ba b5 e1 c3 3c 85 bf 08 bd 84 bf 5d 3c
       -0.001510884 0.023911336 -0.033385772 0.01353443
000310 a7 c0 a3 bb 18 c1 80 3c 02 b1 26 3a 89 2c 5b bc
       -0.004997331 0.015717074 0.00063587737 -0.013377317
000320 28 7d 8f bb 4a 28 a7 3c 64 13 c7 bc 7d a6 c1 bc
       -0.0043789335 0.020404954 -0.024301238 -0.023638958
000330 86 d9 eb bb 48 0a 65 bc f8 94 5a 3c f8 21 ce 3c
       -0.0071975617 -0.013979502 0.013341181 0.025162682
000340 88 db 9b bb bf 62 0b 3d 5e ec 68 bc 26 68 9f bc
       -0.004756395 0.03402972 -0.014216511 -0.019458842
000350 88 b1 8b bc f9 6c c4 bc d6 1c d6 bc 78 3b 00 bd
       -0.017052427 -0.023977743 -0.026136797 -0.031306714
000360 84 d3 06 bd 29 44 29 3c ef 0a bb 3c 5f 64 0d 3d
       -0.03291656 0.010331192 0.022832362 0.03451955
000370 53 61 f4 3c 68 70 e0 ba bb 1b 01 3c 36 8d b7 bc
       0.029831564 -0.0017123343 0.007880147 -0.022406202
000380 1f a8 73 3c 60 fb 09 bd 31 3d 88 3c cf 89 f3 3b
       0.014871626 -0.033686996 0.01663074 0.0074321995
000390 e4 ec 26 3c 38 ef 49 3c 2e 86 8b bc f3 42 f9 3c
       0.010188315 0.012325101 -0.017031755 0.030427432
0003a0 d7 d1 85 3c e7 0c c9 3c fa df b8 3b 47 67 b2 3c
       0.016335411 0.024542285 0.0056419345 0.021777762
0003b0 27 98 bf 3c 13 01 85 3c cb b8 e0 3c d8 55 b9 bb
       0.023387982 0.016235864 0.027431866 -0.0056559853
0003c0 f6 5d c9 3c f8 e4 f3 3b 10 84 aa 3c 96 cc 0f 3d
       0.024580937 0.0074430667 0.020814925 0.035107218
0003d0 bb b6 05 3c 14 4e 64 bc d8 64 92 bb 74 09 18 3c
       0.008161242 -0.013934631 -0.004467588 0.009279598
0003e0 f8 bc aa 3b c6 60 13 bc 9a c4 ee 3c 4f c2 b8 3c
       0.005210515 -0.008995241 0.029146481 0.022553591
0003f0 0d 3c be bc 34 90 10 bb be 5f 2f bb 52 41 b2 bc
       -0.023221994 -0.0022058608 -0.0026759948 -0.021759663

text_emb_enc.bias f4 [256]
000000 10 1a 3d bc 3e 6e 07 bb f0 8f 11 bc 84 67 8a bc
       -0.011541858 -0.0020665075 -0.008884415 -0.016895063
000010 02 4f e6 38 87 37 7b bc ff c5 18 bc af f8 23 3c
       0.00010981971 -0.015333063 -0.00932455 0.010008021
000020 8d 3d dd bc 76 c0 9d 3b d3 7e da 3b 28 8c be 3c
       -0.027006889 0.004814203 0.0066679507 0.023260191
000030 2c 96 53 bc 02 2a c5 bc 24 db 06 3d 14 1a db 3c
       -0.012914222 -0.024067882 0.032923833 0.026745833
000040 d6 3b 80 3c 5e 1a af bc 68 b7 d7 bc 20 77 06 bd
       0.015653532 -0.021374878 -0.026332572 -0.03282845
000050 dd 0d 6f bb 88 03 7b 3c a2 82 c7 bc 77 09 e9 3c
       -0.003647677 0.015320666 -0.024354283 0.028446896
000060 a5 10 2c bb 78 b1 0a bd a6 08 02 3d 94 c3 3d 3c
       -0.0026255038 -0.033860654 0.03174653 0.011582274
000070 5d 6f f6 3c 7e 3d a4 bb 7b 67 fe bc 04 20 c4 bc
       0.030082399 -0.0050122133 -0.031055203 -0.023941047
000080 53 bf 1c 3c a8 c5 51 bb 79 d4 dc 3b b7 60 c8 3c
       0.0095671 -0.0032008681 0.006739196 0.02446018
000090 c1 80 84 bc 7f 84 d0 bb 30 90 6d 3c 28 dc 03 bd
       -0.016174676 -0.006363451 0.014499709 -0.03219238
0000a0 15 c4 98 3b 8d 24 aa 3c d8 64 c5 3c 0e d4 80 bc
       0.0046620467 0.020769382 0.024095938 -0.015726116
0000b0 00 ea 05 3c a7 2e 95 3c 67 41 84 3c 6a ca b3 ba
       0.008173466 0.018210722 0.016144468 -0.001371694
0000c0 63 a1 b5 3c 00 35 0f bd c5 5d cc 3b 4c 32 b4 bc
       0.022171682 -0.034962654 0.006236764 -0.02199664
0000d0 eb bd d6 bc 3a f6 a8 bc 9d 42 1d bc b0 a0 bc bc
       -0.026213607 -0.020625222 -0.009598401 -0.02302584
0000e0 38 92 08 bd be f8 9d 3c 29 f9 b9 3a 1c 2e 80 3c
       -0.03334257 0.019283649 0.0014188635 0.015646987
0000f0 7d 52 be 3c d2 8a 0e 3d d3 06 0f bd 2e 3d 06 3d
       0.023232693 0.034800358 -0.034918617 0.03277319
000100 9a 3a c2 3c 1c 35 71 3c 80 0c c1 bc 4b 49 ea bc
       0.023709584 0.014722135 -0.02356553 -0.028599402
000110 9f dc 51 bc 1b ca 08 3d 4b 89 ab bc f4 d7 e8 3c
       -0.012808948 0.033395868 -0.02093949 0.028423287
000120 9f e4 72 3b bb 14 e9 3a 80 00 ad bc 7d 2c 9f 3c
       0.0037062538 0.0017782667 -0.021118402 0.019430393
000130 78 20 2e bc 8d ea cc 3a 80 9f 0d 3c 4a d1 4b 3c
       -0.010627858 0.0015633866 0.008643985 0.012440035
000140 7f f0 2c bb 90 16 e2 3b 42 ac 36 3c e9 34 24 bc
       -0.0026388464 0.0068996623 0.011149468 -0.01002238
000150 3b b0 13 bd 72 f9 3c 3c 23 c1 fd 3c 91 0e 55 bc
       -0.03605674 0.011534082 0.030975884 -0.013003961
000160 21 d5 f4 3a 95 16 a4 3c f2 4d d0 bc 7b de 4d bc
       0.001867924 0.0200303 -0.025427792 -0.0125652505
000170 3d 67 93 3c bc 24 e3 bb 76 d1 fd bc 37 7a bb 3c
       0.017993564 -0.0069318693 -0.030983668 0.022885425
000180 59 2d 13 bd 3d f5 a4 bc 23 36 70 3c 82 e5 0e 3d
       -0.03593192 -0.02013647 0.014661345 0.034886844
000190 44 2b 7f 3b d8 62 e2 bc a8 78 bf bc e1 d3 9f 3c
       0.00389357 -0.027635023 -0.023372963 0.019510211
0001a0 20 ad f8 bc 45 04 06 bd dc ae 40 bc 15 89 95 3c
       -0.03035599 -0.032718915 -0.01176044 0.018253842
0001b0 c8 ff 0f 3c 03 3d cc 3c a9 17 08 3c 37 e6 dc 3c
       0.00878901 0.024931436 0.008306422 0.026965244
0001c0 c4 bf bd 3c 48 7a 3e bc b8 aa 83 ba 98 a3 9f bc
       0.02316273 -0.011625834 -0.0010045385 -0.019487187
0001d0 88 83 01 bc 06 d2 f1 3c d7 d1 8b ba 24 d6 97 bc
       -0.007904895 0.029519092 -0.0010667396 -0.018534727
0001e0 66 d8 65 bc 74 0d db ba 96 13 87 3c e3 bc 43 3c
       -0.014028644 -0.0016712383 0.016488831 0.01194689
0001f0 1f 90 cd bc ff 24 89 3c fb 5a 6a 3c 5c 70 62 bc
       -0.025093136 0.016741274 0.014303918 -0.013820734
000200 41 00 45 ba 29 14 5b bd 04 7d 2d 3c dc a3 12 3d
       -0.00075149914 -0.053486023 0.010588888 0.0358008
000210 08 af c1 3c 50 3d bd 3c a4 45 ae 3c eb a9 2a 3c
       0.023643032 0.023100525 0.021273442 0.010416488
000220 9e 76 56 3c 37 d6 88 bb c5 55 b7 3c 17 3b f6 bc
       0.013089804 -0.004175927 0.022379765 -0.030057473
000230 08 16 83 3c f6 05 91 3c c8 d7 08 bd 7e fa 6a 3c
       0.016001716 0.017703038 -0.03340891 0.014341949
000240 35 9e ce 3c 5f 94 f0 3b ad 6b 16 3b 0f a2 02 bd
       0.025221923 0.007341906 0.0022952363 -0.031892832
000250 47 89 7d 3c 5d 94 c9 bc 62 bd a3 3c 02 ec 3c 3c
       0.015474624 -0.024606878 0.019987766 0.011530878
000260 35 0b 14 bd a4 04 fe 3b 1b 58 e8 bc 63 37 df 3c
       -0.0361435 0.007752018 -0.028362324 0.02724809
000270 74 1a b8 bc 1c 43 f3 3c f1 dd 0d bd 26 92 4b bb
       -0.022473551 0.029695086 -0.034635488 -0.0031062453
000280 ce 04 e8 3c 3f e3 ec 3b dd 52 90 3c 5b da ae bc
       0.028322604 0.0072292383 0.017617637 -0.021344354
000290 9e 07 5d 3b 02 8f 8d bc 0e 24 d6 bc 13 1d 10 3c
       0.0033726464 -0.017280106 -0.02614024 0.008795994
0002a0 c3 22 0c bd 30 43 99 ba 24 0c ed 3c 24 3d c1 bb
       -0.03421284 -0.0011692997 0.028936453 -0.005897181
0002b0 7a 4e 8f ba 36 67 a6 b8 4a 11 e1 3c f0 cc 1c bd
       -0.0010933422 -7.934721e-05 0.027474064 -0.03828138
0002c0 24 2d 06 bd 9f fe 9c 3c 63 e2 73 bc 82 50 92 3c
       -0.032757893 0.019164382 -0.014885518 0.017860655
0002d0 ac 35 c3 bc b8 47 c1 bc 1e b4 a7 bc ab 12 45 bc
       -0.023829304 -0.023593768 -0.020471629 -0.012028377
0002e0 8a 4e 00 bb a0 bc e4 3c 79 04 00 bc 99 3f 95 ba
       -0.0019578063 0.027921975 -0.007813566 -0.0011386751
0002f0 c4 a7 63 3c 39 b9 d7 bc 32 53 88 3c a2 3b 27 3b
       0.013894979 -0.026333438 0.016641233 0.0025517722
000300 e8 91 a4 bc 9c ac f8 bc 71 b2 8d bb 32 2d c5 bc
       -0.020089105 -0.030355744 -0.0043242504 -0.024069402
000310 35 b4 8f bc 13 c9 0a bd d9 f1 cc bc 26 9f 46 3c
       -0.017541984 -0.033883166 -0.025017666 0.012122905
000320 58 fe 25 3c 6e b5 d4 3c c9 88 d5 3c 2e 2e 8a 3c
       0.010131441 0.025965419 0.0260662 0.016867723
000330 35 f0 09 3d 92 12 90 bc 66 df d8 bc 3b 64 a6 39
       0.033676345 -0.01758698 -0.026473712 0.00031736665
000340 86 f2 0a 3c 44 76 09 3c 6b aa 87 bc 4a 36 c4 39
       0.008480674 0.008390013 -0.016560754 0.00037424482
000350 fc a5 d3 3b a8 7c cd 3c d5 f9 eb bc f7 81 f6 3b
       0.006458996 0.025083855 -0.028805653 0.0075228172
000360 79 11 44 3a 3e a2 0e 3d 70 5d 00 bd 48 9c e1 3c
       0.000747941 0.034822695 -0.03133911 0.027540341
000370 31 70 10 bd af 76 c3 3b 91 14 a7 3c eb da a7 bc
       -0.035263244 0.005965076 0.020395549 -0.02049013
000380 5e 90 19 bd 23 08 f1 bc 9d 11 f6 3b 08 c8 90 bc
       -0.037491195 -0.029422825 0.007509424 -0.017673507
000390 c8 d9 ec 3a 08 7b e8 3b a6 ba 4b 3c 18 16 ae 3c
       0.0018070275 0.0070947446 0.012434637 0.02125077
0003a0 cb e3 50 bc 84 4b 89 bb 82 b7 c9 ba 6f ba ea bc
       -0.012749623 -0.0041899104 -0.0015389773 -0.028653352
0003b0 21 90 a3 3c df 9c 95 3c 6d db d4 bc ce 54 c3 bc
       0.019966187 0.018263279 -0.025983537 -0.023844149
0003c0 12 7e 07 bc f8 8a 08 bd 18 41 bd bc ea da 6f bc
       -0.008269804 -0.033335656 -0.023102328 -0.0146395955
0003d0 49 c7 74 3c 15 0f 2f 3b 98 db e6 bc 19 c5 07 3b
       0.014940091 0.002671187 -0.028180882 0.0020716845
0003e0 b5 d4 08 ba 6a 96 27 bd b0 04 25 3d c6 4e 10 bd
       -0.0005219684 -0.04091493 0.040287673 -0.035231374
0003f0 6c 06 e1 3a 23 75 e2 bc 9d 66 1b bd f7 d3 9b bc
       0.0017168052 -0.027643746 -0.037939657 -0.019021971

symb_enc.weight f4 [3, 256]
000000 f6 ab 82 3f b6 79 d9 3f 6e a8 c6 be b1 fd 0f 3d
       1.0208728 1.6990268 -0.38800377 0.03515405
000010 12 f3 2f bf cb 9f a5 3e 0e b1 22 bf 4a 84 be be
       -0.6873027 0.32348475 -0.63551414 -0.37210304
000020 ce 34 1c c0 21 ae 8c bb 5b 41 82 3f 0d ae 9c bf
       -2.440723 -0.0042932187 1.0176195 -1.2240616
000030 76 75 64 3f d3 64 48 3f 54 8f 96 3e 19 2c bc bf
       0.8924173 0.78278846 0.29406226 -1.4700958
000040 7b 76 8f 3f 99 e0 8e 3e ad 03 16 be e2 f9 82 be
       1.1208032 0.2790573 -0.1464984 -0.2558127
000050 e1 fe db bd e9 39 72 bf 2b 8c 99 3f c3 39 53 bf
       -0.10741974 -0.94619614 1.1995901 -0.8251001
000060 ff 7d 93 3f 63 8c 3e 3f 6a 91 20 be 77 f8 9b bf
       1.1522826 0.74432963 -0.15680471 -1.21852
000070 f1 86 d1 be d0 85 06 3f 95 13 57 3f 23 04 30 3f
       -0.40923265 0.5254793 0.84014255 0.6875631
000080 c5 4c 16 3f ab 03 ca be 4c a1 cf bf 3d 6d e3 bd
       0.5871089 -0.39455923 -1.6221099 -0.1110482
000090 49 b8 72 bf c7 3c fe bf ca 3e 03 3f 18 07 32 3e
       -0.94812447 -1.9862298 0.51267684 0.17385519
0000a0 0b 47 c4 3f 46 55 98 3f f1 21 ad bf ce 59 0c c0
       1.533418 1.1901023 -1.3525983 -2.1929812
0000b0 ac bf d5 bf a1 c2 7f bf de ac af be c8 c0 39 3f
       -1.6699119 -0.99906355 -0.34311575 0.72559786
0000c0 e1 dd 05 3f 50 29 4a bf 90 1e a9 3e 15 ba b8 bf
       0.52291685 -0.7896929 0.3303113 -1.4431788
0000d0 5c 93 88 be 45 8c 09 3f 3f 60 68 3f 14 02 3b 3f
       -0.26674926 0.5372966 0.9077186 0.73050046
0000e0 19 9b 87 bf e8 ce 01 bf 80 4c 0c c0 8b b6 d3 bf
       -1.0594207 -0.5070634 -2.1921692 -1.6540083
0000f0 b3 e0 03 bf ba 33 f0 be 52 bd b6 bf 99 15 32 be
       -0.5151474 -0.46914464 -1.4276526 -0.17391051
000100 82 1f 5f bf 3c df 0c 3f ed fe 49 bf 29 1c e6 3f
       -0.8715745 0.5502813 -0.7890461 1.7977344
000110 ef 83 76 bd 56 91 81 bf fe 96 63 bf bb 38 ed 3f
       -0.060184415 -1.0122478 -0.8890227 1.8532938
000120 fb 84 8e bf ad 79 17 bf b4 e9 65 bf 2c f0 b4 3e
       -1.1134332 -0.5917004 -0.8980973 0.35339487
000130 68 91 c6 3e 29 a3 8d bf c0 6a a5 3f a9 08 22 bf
       0.3878281 -1.1065418 1.2923203 -0.63294464
000140 86 da cf bc be 3a 07 c0 8e 2b cf 3f 67 22 89 bc
       -0.025372755 -2.1129603 1.6185167 -0.016740037
000150 01 63 11 bf 64 47 a8 3e 91 0f 44 bf 14 38 a3 bf
       -0.5679169 0.32866967 -0.7658625 -1.2751489
000160 5c cb 64 3f 0e c0 28 bf 15 78 20 3e 70 cd 47 be
       0.893728 -0.6591805 0.15670808 -0.19511962
000170 dc ba 58 3f 75 9b 3b 3e 76 54 18 bf 58 3c 23 be
       0.84660125 0.18321021 -0.5950388 -0.15940988
000180 78 92 cc bd 30 4d cb be a7 5f 12 b9 c6 dd ab bf
       -0.09988874 -0.39707327 -0.00013959278 -1.3427055
000190 63 42 9a bf 34 25 0c 3d 24 1f 82 3f 90 55 84 3c
       -1.205151 0.034215167 1.0165753 0.01615408
0001a0 3c 60 4c bd a0 1f 46 3f fc 0a 99 3e a7 be 55 3f
       -0.049896464 0.77392006 0.29891193 0.8349404
0001b0 b8 ef 41 bd d3 27 9c 3f ed 28 cd be 4c ba a9 b9
       -0.047347754 1.2199653 -0.40070286 -0.00032372994
0001c0 3c cb 8c bf c4 5c 76 be 47 80 eb be 0c 26 80 bf
       -1.0999522 -0.24058825 -0.45996305 -1.0011611
0001d0 56 1b f3 be f3 51 96 3f d5 6c 21 3f 9e 7c b3 3f
       -0.47481793 1.1743759 0.6305669 1.4022405
0001e0 1f 6f 3a bf e9 87 96 3f d1 3a 97 3f e0 7e d2 be
       -0.7282581 1.1760226 1.1814824 -0.41112423
0001f0 5a 83 d8 3e c3 89 94 3f 66 68 a3 be aa e6 0b 3e
       0.42287713 1.1604542 -0.31915587 0.1366221
000200 e2 e2 8b bf b1 74 cf be 89 e0 cf 3e 26 0e d5 3f
       -1.0928614 -0.40518716 0.40600994 1.6644943
000210 a9 e7 c2 be 60 8c 0b 3f ab 2e f5 bd 7d dc 30 3e
       -0.38067368 0.5451107 -0.11971792 0.1727161
000220 a3 d4 62 bd 4e 04 71 3e dc 65 d6 bf fc e9 0c be
       -0.055378567 0.23536798 -1.6749835 -0.13761133
000230 46 be 7e 3e 2c e0 09 40 4f 44 0e bf 62 e3 47 3f
       0.24877271 2.1543074 -0.5557298 0.78081334
000240 7d 34 11 bf cc a7 57 3f 19 92 de 3e 5b f5 38 3f
       -0.56720716 0.8424041 0.4347084 0.7224938
000250 bf e4 3e bf 0d 05 33 be 7b 11 b5 bf 20 61 21 bf
       -0.7456779 -0.17482395 -1.414596 -0.63038826
000260 19 8b 9c 3f d0 7f f2 3e 16 c2 de bf b6 2f b9 3f
       1.2229949 0.47363138 -1.740298 1.4467685
000270 ad bb 79 3f 55 b9 30 be 93 db 6c 3f 2c 5f d4 3f
       0.97551996 -0.17258199 0.92522544 1.6591544
000280 b4 bf f9 bd 01 07 07 c0 e1 dc 7b be 5e 53 06 bf
       -0.121947676 -2.1098025 -0.24595977 -0.5247096
000290 c3 38 74 3f 0e 22 6a 3f 72 10 75 3e 1a 39 0e 3f
       0.9539911 0.91458213 0.23932055 0.5555588
0002a0 ab 34 f0 bd 6f 8c c8 3f ae e2 cc bf eb 81 12 3f
       -0.117287956 1.5667857 -1.6006677 0.5722949
0002b0 ae 34 82 be bb 32 64 bf 45 e1 80 be d5 e1 b0 3f
       -0.25430816 -0.8913991 -0.25171867 1.3818918
0002c0 64 76 ab be 41 81 05 c0 fa cf 75 bf 08 49 fb bf
       -0.33488762 -2.086014 -0.9602047 -1.9631662
0002d0 73 f2 a9 bf c9 cb 85 3e 9b 0e 20 c0 24 1c d8 3e
       -1.3277115 0.26132038 -2.5008914 0.4220897
0002e0 48 e2 e8 3e 5e 31 86 bf b3 7b 42 bf bb 6e a0 be
       0.4548514 -1.0483816 -0.7597 -0.3133448
0002f0 f8 d8 10 3e 7e 53 50 3d 03 23 e1 3f 1e 41 b2 3f
       0.14145267 0.050860874 1.758881 1.3926122
000300 94 82 44 3f 98 3a 22 3f c4 7f b7 3e 58 18 27 3e
       0.76761746 0.63370657 0.35839665 0.1631788
000310 02 bd ee 3e 33 b6 61 3f 11 5f b5 bf 30 7c 63 3e
       0.46628577 0.8816864 -1.4169637 0.22215343
000320 a4 f0 f3 3d 00 b9 4e bf bb f1 d6 be 78 63 fb 3f
       0.11911133 -0.8075104 -0.419813 1.963973
000330 0a 75 92 3f 2f ce 3a 3f 03 d6 61 bf 3c 68 47 3e
       1.1441967 0.7297086 -0.8821718 0.19473356
000340 c5 0e 09 40 9d ae a5 3f df 32 ca bf 92 e6 0b be
       2.1415265 1.2943913 -1.5796775 -0.13662174
000350 d1 55 96 bf d3 6c 03 40 85 79 de 3e d1 72 d3 bd
       -1.1744939 2.053517 0.43452087 -0.10324634
000360 63 be c6 3e d8 ed 95 bf c0 76 55 bf 96 db 91 3e
       0.3881713 -1.1713209 -0.83384323 0.28487843
000370 2f 3b f3 3e 66 b4 1e 3f 69 76 87 3e 76 33 23 3e
       0.4750609 0.61994016 0.26457527 0.159376
000380 72 f5 45 bf 76 38 a7 be 4a f2 29 bf ff 77 f5 3e
       -0.77327645 -0.32660264 -0.6638533 0.47943112
000390 f8 1b af 3e 72 43 98 bf 73 07 ca be cc 16 95 3f
       0.34201026 -1.1895583 -0.39458808 1.1647582
0003a0 28 0b 9b bf 70 bd 37 3f 0d 25 8e 3e 1e d9 ff be
       -1.211278 0.71773434 0.27762643 -0.49970335
0003b0 bd 14 70 3f 20 b7 9b 3e df 64 ee b9 35 66 62 3f
       0.93781644 0.3041315 -0.00045470052 0.88437206
0003c0 8c 3d 7c 3e 6a f9 f5 be 72 f7 c5 3e bd 3f 59 bf
       0.24632853 -0.4804185 0.38665348 -0.8486288
0003d0 e8 2f db be 44 71 03 3f c9 47 90 ba 23 94 dc 3f
       -0.42809987 0.51344705 -0.0011007722 1.7232708
0003e0 eb fb 9b bf db b6 04 bf 3f 39 36 bf 8b d6 a3 bf
       -1.2186254 -0.51841515 -0.711811 -1.2799848
0003f0 f0 c6 27 ba c6 1c e6 be f6 76 bb 3f a6 cd 84 3d
       -0.00064001884 -0.44943827 1.4645679 0.06484537

fc1.weight f4 [1, 1280]
000000 33 2f b6 bc 78 0e be bc 1b 34 94 bc 64 5c 86 3c
       -0.022239303 -0.023200259 -0.018091252 0.016401477
000010 ff a5 36 bc d0 be e7 3c 61 b0 3a b9 87 c3 54 bc
       -0.011147975 0.028289229 -0.00017804049 -0.0129860705
000020 83 05 dd 3b 5b c1 81 b9 d8 42 a3 3c a6 9d ab b8
       0.006745042 -0.00024748858 0.019929335 -8.18328e-05
000030 6e 6c 4b 3c fd b7 80 3c aa a8 ae ba aa 93 57 bc
       0.012415988 0.015712732 -0.0013325412 -0.013157764
000040 2b 64 50 bb 45 96 0b 3d fe f8 9d bb 0d 5f 9e 3c
       -0.0031797986 0.034078855 -0.004820942 0.019332433
000050 fb 0d 5f 3c 7e c3 95 3a 46 92 e1 3c b2 4a 86 b9
       0.013614173 0.0011426059 0.027535569 -0.00025614124
000060 e0 d8 6d 39 41 82 67 bc a8 e1 e2 bc b3 de 26 3c
       0.00022682874 -0.014130176 -0.027695492 0.010184932
000070 fd 7c 92 b9 b7 86 5d 3c d5 c8 b7 3c 05 97 bc bc
       -0.00027940414 0.013520888 0.022434631 -0.02302123
000080 29 b9 ce 3c 7c b9 9b 3c ca 42 0c bc eb 4b c8 3c
       0.025234776 0.019009344 -0.008560846 0.024450263
000090 69 01 56 bb eb ea 95 3c ef d6 9a 3b 7f 94 dc b8
       -0.003265465 0.018300494 0.004725329 -0.00010518077
0000a0 35 f0 36 39 e5 3d 9d 3c 61 3d c7 3c 5c d0 71 3b
       0.00017446357 0.019194553 0.02432126 0.0036897874
0000b0 c8 bf f7 3b 00 9c 18 bc 42 77 66 3c 61 7d 5e bc
       0.007560704 -0.009314537 0.014066519 -0.013579697
0000c0 62 2d e0 bc 48 2c 2d bc 44 bf dc b8 0d a6 6e 3c
       -0.02736539 -0.0105696395 -0.000105260435 0.014565957
0000d0 a1 37 5a b9 42 c5 8a 3c 86 10 68 3c da ad 94 3b
       -0.00020810823 0.016939763 0.014164096 0.0045373263
0000e0 bb 5e 4c 3c 2f 5b d0 39 5c 76 b4 3c c8 70 e4 3c
       0.012473757 0.0003974079 0.022029094 0.02788581
0000f0 37 89 57 b9 c7 e8 f6 bb c7 2e a2 bc 73 fc 51 3c
       -0.00020555114 -0.0075350734 -0.019797696 0.012816536
000100 5d f3 c8 b8 6b bf 8e ba 7b cd 97 b6 51 93 80 bb
       -9.582073e-05 -0.0010890787 -4.5240718e-06 -0.0039238115
000110 67 ae 2d 3c 27 3b 96 bc 6f 45 87 3c e4 f4 6c b7
       0.010600663 -0.018338753 0.0165126 -1.4123714e-05
000120 cc ee d6 bc 57 bd 5f b8 12 fd 59 bb de 47 0d 3c
       -0.026236914 -5.334368e-05 -0.0033262414 0.0086230915
000130 0c 02 2f b9 d5 06 bc 3b e1 ee 10 3c 21 51 fe 3a
       -0.00016690063 0.005738119 0.008846016 0.001940284
000140 8b a0 78 b8 de f5 02 b9 c7 db ba b9 bd 2d 98 ba
       -5.9277325e-05 -0.00012489359 -0.0003564043 -0.0011610311
000150 a5 49 c1 b8 88 01 95 ba a4 23 aa 3c d8 8f da bb
       -9.2166745e-05 -0.0011368254 0.020768948 -0.0066699795
000160 bb 4f 3d bd f5 d2 74 3c a9 68 be b9 47 da f9 b7
       -0.046218615 0.014942874 -0.00036317602 -2.9784756e-05
000170 6f 03 fc b8 a5 5e 48 3c 64 e2 c1 3c 7a ad f2 39
       -0.00012016936 0.012229596 0.023667522 0.00046287087
000180 63 ab d9 b5 56 fe 6b 3c c7 82 c5 bb 65 11 82 3b
       -1.621764e-06 0.0144039 -0.0060275528 0.0039693587
000190 ba 53 b5 3c c6 d7 c3 39 43 7b 65 bb 92 05 0a 3c
       0.02213465 0.00037354062 -0.0035016097 0.00842418
0001a0 6f d2 29 bb 69 22 1b bc e4 24 1f bc 76 f2 2d b8
       -0.0025912782 -0.009468653 -0.009713385 -4.1472224e-05
0001b0 b8 dd ca 3c d2 3c 55 3c bc e2 0f bc b5 4c c8 3b
       0.024763927 0.013014989 -0.008782085 0.00611266
0001c0 7d 42 6f 3c c6 0a c6 3c e5 5e 57 3c b6 cf 9a bc
       0.014603254 0.024175059 0.013145183 -0.018897872
0001d0 2e 26 36 bc 4f 73 01 3c df 92 40 bc 9e 17 aa bc
       -0.011117501 0.007901027 -0.011753767 -0.020763215
0001e0 ab cc 7a bb fa bc c4 bc f7 81 15 3c b8 9f e3 3c
       -0.0038268964 -0.024015892 0.009125224 0.02778612
0001f0 78 76 36 b9 5e 85 39 b9 60 1e 8a 3c 9d 0c e0 bc
       -0.00017401006 -0.00017692658 0.016860187 -0.027349764
000200 1a 95 3e 3c b8 0b d4 3c c5 1f 48 3c 4e c2 dd bc
       0.011632228 0.025884494 0.012214606 -0.02707019
000210 ce 9b 3a bc 7b d9 47 bb 90 a7 98 bc bb de 1b bc
       -0.011389686 -0.0030494619 -0.018634588 -0.009513552
000220 3f 7d 69 ba e6 38 7e bb d3 16 fe b8 d5 03 9a b8
       -0.0008906908 -0.0038791238 -0.00012115915 -7.344006e-05
000230 e1 62 09 3c 32 56 dc bc c2 e8 fa bb 63 77 8b b9
       0.008385391 -0.02689657 -0.0076571414 -0.00026601096
000240 54 92 86 bb f7 63 c9 3c b7 0f 5a 3c 14 2e ac b8
       -0.004106799 0.0245838 0.013309411 -8.210182e-05
000250 09 62 57 b8 66 41 4a 3c 7e 43 5c 3c 67 6e ea 3b
       -5.1351297e-05 0.012344694 0.013443826 0.0071542743
000260 b9 e0 72 bc 3c 7b f9 3b 7e 3d 70 3c 82 fe d0 3a
       -0.014824086 0.0076135676 0.014663098 0.001594499
000270 1d 90 ab bb 39 62 8b 3b f2 18 de 3b f5 f6 0d 3c
       -0.0052356855 0.0042536524 0.006777876 0.008664836
000280 a0 5d 89 b9 45 fd 69 3c 48 a2 c5 bb cc 3b da 3c
       -0.00026200432 0.014281576 -0.0060313083 0.026639841
000290 bc 0d a2 b9 b4 72 b3 3c 3d a3 20 3c 7f 35 8b 3c
       -0.0003090928 0.02190528 0.009804544 0.016993282
0002a0 9c 56 93 3c e5 ec 9d b8 42 42 15 3c ef 93 db b9
       0.017985635 -7.5304684e-05 0.009110035 -0.00041881154
0002b0 98 23 23 3b fa ef b3 3c 36 8e 33 ba 3c 41 6b 3c
       0.0024893042 0.021965016 -0.0006849499 0.014358815
0002c0 f2 7e fc b8 a8 b4 ee 3b 75 89 c7 3c f1 11 51 b9
       -0.00012039942 0.0072847195 0.024357537 -0.00019938477
0002d0 d6 50 47 bc cb 84 b9 b8 1e 97 5c b9 21 94 d3 3c
       -0.012165269 -8.846222e-05 -0.0002103713 0.02582747
0002e0 2f 98 ff 3b 5f 42 51 3c 44 57 eb 3b 11 8f 6d 3c
       0.007800124 0.012772172 0.0071820337 0.014499442
0002f0 32 95 da 3b 9c 12 15 3c 92 c2 48 bc e8 e0 d5 ba
       0.0066706175 0.009098675 -0.01225342 -0.0016317638
000300 be 2b 3c b9 ce 7e b8 bb 8f 2a 47 ba e8 8c cb 3c
       -0.00017945372 -0.0056303507 -0.0007597589 0.024847463
000310 41 99 47 bc 74 e6 c6 bb c0 a2 91 3c be f5 91 bc
       -0.012182535 -0.0060699526 0.0177778 -0.017817374
000320 c0 09 1c b9 a0 af 35 3c 92 06 9a b9 a0 0c 80 3b
       -0.00014880951 0.011089236 -0.00029378064 0.003907755
000330 2c bd 12 bc 5a 99 28 bc 5b 1a e3 3a 7c 8d 88 bb
       -0.008956235 -0.010290468 0.001732658 -0.004167257
000340 8e 30 94 3c a6 6c a7 3c 95 b6 88 bc 64 8e 87 3c
       0.018089559 0.02043755 -0.016688624 0.01654739
000350 4d 85 57 3b f3 e3 13 39 23 33 9b 36 63 3a 8e ba
       0.003288585 0.0001410393 4.625313e-06 -0.0010851141
000360 11 ff a3 b9 29 e8 50 3c 7c 74 98 3c 1d 72 22 3c
       -0.00031279822 0.012750664 0.018610232 0.009914902
000370 29 66 30 3c 52 ce b2 3c b9 dd c4 3c 28 55 db 3a
       0.010766544 0.021826897 0.024031507 0.0016733753
000380 b4 4c a4 b8 2a 3f d0 3c 0d 18 3b b8 2d 28 eb 3b
       -7.8344165e-05 0.025420744 -4.4606673e-05 0.00717642
000390 65 73 2b 3c 58 06 d1 bc fe 3a 8d 3b 1b 92 48 3c
       0.010464524 -0.02551572 0.004310011 0.0122418655
0003a0 05 d5 27 bc 32 72 4b b8 dc b1 bb bb 2e ec 5e ba
       -0.010243659 -4.8505324e-05 -0.0057279896 -0.00085038214
0003b0 20 12 d9 3c f5 45 ae bb b8 ac 82 3c 82 b5 29 3c
       0.0264979 -0.005318398 0.0159515 0.010358216
0003c0 c8 b4 7a 3c 3e e9 c1 3c 20 98 a2 3c 37 d9 9a bc
       0.015301891 0.023670789 0.01984793 -0.018902404
0003d0 fa 1e d5 37 6a 34 81 3c 38 c6 5f bb 9a 66 c6 3c
       2.5406003e-05 0.015772063 -0.0034145247 0.024218846
0003e0 ca 8c a9 bb 9b 38 7c bc e7 2a 07 3c aa e0 8a 3c
       -0.005174254 -0.015394355 0.008249975 0.016952831
0003f0 71 f9 b1 3c 53 b8 0b bc 65 16 fd b7 82 ba a4 bc
       0.021725388 -0.008527833 -3.0170379e-05 -0.020108465
