Reranking/data/checkpoints/mag/best.pth (torch, 804620 bytes, 6 tensors)

score_vec_enc.weight f4 [256, 4]
000000 bc 37 b7 3e ea 1b c0 3e 4c 73 09 be 21 0d c7 3f
       0.3578471 0.37521297 -0.13422889 1.5550882
000010 a1 13 5f be cd f1 ff 3d 19 05 62 be 90 71 c8 3e
       -0.21784832 0.12497292 -0.22072257 0.3914914
000020 87 8c c7 3e 37 40 70 be e5 74 c7 3e 7e 9c 8c 3f
       0.389744 -0.23461996 0.3895637 1.0985258
000030 69 39 b8 3e e5 dc 73 3c a2 76 68 3e 94 14 b7 bf
       0.359813 0.014884208 0.22701505 -1.4303155
000040 7c 12 4b 3d c1 44 9d 3a 3b 3c 46 bd fb 6f ee bd
       0.049578175 0.001199864 -0.048397284 -0.11642452
000050 ac e5 6b be c0 2c 70 bd fc f3 4f be ae d2 a9 3e
       -0.23036832 -0.058636427 -0.20307916 0.33168548
000060 ff 90 76 be ee 43 6b be b8 8b 0f bd 2e 2b 0f be
       -0.24078749 -0.22975132 -0.035045356 -0.13981315
000070 7a b3 27 bc 2f 74 3c bf 77 ce e2 3e 50 04 81 bf
       -0.010235662 -0.7361478 0.44298145 -1.0079441
000080 bc 62 a8 3e 09 a4 d3 3d 60 d0 1e be b9 78 9b 3f
       0.32887828 0.103340216 -0.15509176 1.2146217
000090 dd 3d a3 3d 43 93 ba 3e 03 2d ef 3c 6d 00 9b 40
       0.07970784 0.36440477 0.029196268 4.843802
0000a0 0c 8c e5 3d a7 fe c9 bd b9 65 38 3e 9f c4 b6 3f
       0.112083524 -0.09863024 0.18007554 1.4278754
0000b0 25 8f 87 3e a2 98 01 be dd db 86 3e 98 6f 8f 3f
       0.26476398 -0.12655881 0.26339617 1.1205931
0000c0 88 46 5e 3e e3 04 13 be e0 64 0e bf 39 06 6b be
       0.21706593 -0.14357333 -0.55622673 -0.22951593
0000d0 26 3b 19 bf b9 45 be 3e 50 db 9b 3d e4 fd 8b 3f
       -0.5985588 0.3716257 0.0761019 1.0936856
0000e0 40 04 1d 3e 2b df 62 bc 26 c9 a7 3e 25 a2 97 40
       0.15333652 -0.013847153 0.32770652 4.738543
0000f0 a4 e7 63 3a af bb b2 be 10 12 f3 3d 92 d9 70 bf
       0.000869388 -0.34908816 0.118686795 -0.94081986
000100 2e 17 15 3e 16 4e 08 bd ff aa d9 3e 78 35 9c bf
       0.14559624 -0.033277594 0.42513272 -1.2203817
000110 75 42 92 be b7 c4 89 be 02 bc fa 3e cf fa e7 3e
       -0.28566328 -0.26907894 0.48971564 0.4530854
000120 d0 06 ec 3e 34 46 c9 be 46 2e 02 bf 0a ea dc 3e
       0.46098948 -0.39311373 -0.5085186 0.43147308
000130 9c 11 05 bf 80 d9 5a 3e 4c d1 f3 3d 3a b5 80 3f
       -0.51979995 0.21372032 0.119051546 1.0055306
000140 8f 9b e3 be 4a 8e 1b bf 74 f4 10 3e 07 cd ca be
       -0.4445462 -0.6076399 0.14155751 -0.39609548
000150 fe 9c 8e 3e 7b f8 3b bd f1 3d 81 3e 61 cd 85 bf
       0.2785415 -0.045891266 0.2524257 -1.0453302
000160 7d b4 ce be cb 49 2c 3e eb 93 52 3d eb f0 3d 3f
       -0.40372077 0.16825025 0.051410597 0.74195737
000170 4b 23 96 3e 94 74 ab 3e 37 6e 99 be 97 1a 97 bf
       0.293238 0.3348738 -0.299669 -1.180499
000180 af 6e b9 3e 4a f0 56 be 34 34 20 be 61 cc 0e 3f
       0.36217257 -0.209901 -0.15644914 0.5578061
000190 e7 c4 ab be a4 d9 1d 3e 56 90 eb bd ce 2c 82 bc
       -0.33548662 0.15415055 -0.11502139 -0.015890505
0001a0 42 3c 5e 3c 18 80 d4 bd 26 5e e3 be 99 b1 2a bd
       0.013564171 -0.103759944 -0.44407767 -0.041673277
0001b0 6e 46 9d be b3 e3 bc be 9d ef 0d 3f ad a4 ae 3e
       -0.30717796 -0.3689247 0.55443746 0.34110013
0001c0 34 58 08 3e 56 84 89 be 72 74 a2 be 7c 6a aa be
       0.13314897 -0.26858777 -0.31729466 -0.33284366
0001d0 69 2c b5 3d d1 67 59 bf d0 71 2e be a0 a3 1c 3e
       0.08846361 -0.84924036 -0.17035604 0.15296793
0001e0 cd f6 e8 bc 25 8a 92 bd 80 8f e1 ba f1 ac 69 3d
       -0.028437996 -0.07155255 -0.0017208904 0.057049695
0001f0 98 b7 af be d2 59 95 be 9c 41 2f be 50 0e ca be
       -0.34319758 -0.2917009 -0.17114872 -0.39464045
000200 c0 4c 7d 3e ad f8 c8 bd 72 4b 6d 3e a4 4d 01 3f
       0.24736309 -0.09813056 0.23173311 0.50509095
000210 7b a7 22 bf 5c 69 b1 3e 87 a4 25 be 7f 11 75 3e
       -0.63536805 0.34650695 -0.16176043 0.23932455
000220 27 97 da be 3d 2d 00 bf 71 0b 48 3d 9f 52 a6 be
       -0.42693445 -0.5006903 0.048839036 -0.3248491
000230 d0 f4 4d 3e 65 9e cf be 81 d5 9a 3e b0 01 bb bf
       0.2011292 -0.40550533 0.30241016 -1.460989
000240 33 99 c8 bd 79 34 b7 3d ca 9a 93 3e fd 1f 97 be
       -0.097948454 0.08945555 0.28829032 -0.29516593
000250 eb f6 d0 3e 3f d0 ae be 70 65 e9 3d 10 33 89 bf
       0.40813383 -0.34143254 0.11396301 -1.0718708
000260 36 6c 6e 3d 2f 4f 13 be 7b 86 3b 3e 6a 3b 85 3d
       0.058208667 -0.14385675 0.18313019 0.06505473
000270 79 12 67 3e 2f ac 6e 3e e8 39 1f 3e 84 ce 28 c0
       0.2256564 0.2330787 0.15549433 -2.6376047
000280 bd 7a d5 3e 20 b7 be 3d a2 51 1b 3d 44 b0 92 40
       0.41695204 0.09312272 0.037919648 4.584017
000290 be 13 3d 3e 31 e1 0d be 2e af 7c be 17 91 8e 3f
       0.18464562 -0.13855435 -0.24676201 1.1138028
0002a0 4b d0 da 3d 8c e9 0b bf 14 8c 5b be 54 de fa 3e
       0.1068426 -0.5465324 -0.21440154 0.48997748
0002b0 49 84 79 3e de 1c 28 be 76 3c a0 be 7c 3d 0b 3f
       0.24366869 -0.16417262 -0.31296128 0.5439069
0002c0 b8 bd b5 be b8 33 29 3e 73 61 be 3e a2 c5 3c bf
       -0.35496306 0.16523635 0.37183723 -0.73739064
0002d0 85 5d ec 3d ce 7b 79 3e e0 58 6b 3d e8 4c a3 40
       0.11541275 0.24363634 0.057457805 5.103138
0002e0 80 fb 7f 3e ae 4b 7d 3e f7 17 13 3e c1 06 a5 40
       0.24998283 0.24735901 0.1436461 5.1570745
0002f0 ed 11 1c be a8 5e 1b 3d e6 30 5b bd f0 a0 a4 be
       -0.15241213 0.037932068 -0.05351343 -0.32154036
000300 cb fa ec 3d af 68 87 3e 60 8c ce bc 62 ac c9 3d
       0.115712725 0.26447055 -0.02521342 0.098473325
000310 e5 43 ef 3b 84 ba 9c bd 3f a9 8e 3d 68 00 88 3f
       0.007301795 -0.076527625 0.06965875 1.0625124
000320 e6 7a b7 be eb fb 6e be 11 ce b7 3e 7f 56 5b 3e
       -0.35835952 -0.23338287 0.35899404 0.21419714
000330 a0 b9 cb bc 08 58 9a be 42 9f 9c be fa 50 e5 be
       -0.024868786 -0.30145288 -0.30590254 -0.44788343
000340 21 3e 3f be 8c f7 bf 3d f3 74 78 3e 02 23 29 3f
       -0.18676044 0.09373388 0.24263363 0.6606904
000350 51 34 38 be 82 c6 d0 bd 54 90 c1 bd 31 b0 20 3f
       -0.17988707 -0.10194112 -0.094513565 0.62768847
000360 92 36 87 3d c7 bb 37 be 66 e8 a6 3d d6 ed 0b 3f
       0.06602205 -0.17942725 0.08149795 0.54659784
000370 cf 31 17 bf 43 09 b5 3e 34 73 86 be 21 e2 8d 3e
       -0.59060377 0.3535863 -0.26259768 0.27711585
000380 bb f9 d0 be ef 63 93 3e bc fd 8f 3e 4d 6b 36 3f
       -0.4081553 0.2878718 0.2812327 0.7125748
000390 37 e4 22 be ea d4 fb be 91 34 a9 bd 60 24 2e 3f
       -0.1590737 -0.49185878 -0.08261979 0.68024254
0003a0 96 07 82 3e 37 dc ec 3e be 00 89 3e 22 c6 1f c0
       0.25396413 0.4626176 0.2675838 -2.496468
0003b0 80 71 a0 bb 86 b0 c2 be 6c 55 db be 02 73 ef be
       -0.0048963428 -0.38025302 -0.4283861 -0.46767431
0003c0 1f c1 31 3e 86 39 93 be 16 d7 bd bd 76 50 3e 3f
       0.17358826 -0.28754824 -0.0926954 0.74341524
0003d0 fb d3 b7 bc 4c 40 5a be d0 22 9e bd 14 96 0f 3f
       -0.022439947 -0.2131359 -0.07721484 0.56088376
0003e0 9d 64 a3 bd 98 cb 9d 3e dc d2 34 be 2e db 3c bd
       -0.07978175 0.30819392 -0.17658561 -0.046107464
0003f0 68 ac b4 bd d0 30 78 be 60 a4 1c be fc b5 f3 be
       -0.088219464 -0.2423737 -0.15297079 -0.4759978

score_vec_enc.bias f4 [256]
000000 bb dc c7 3d da 31 86 be 3d 6a d8 3e 99 47 4f bf
       0.09758898 -0.2620991 0.42268553 -0.80968624
000010 28 21 85 3e f8 d7 9a be 80 2b 05 3f a3 ba 01 bf
       0.2600186 -0.30242896 0.520195 -0.5067541
000020 fb af d7 bd d1 b8 68 bf 44 0d 68 3e 37 7d 42 3f
       -0.105316125 -0.9090701 0.2266131 0.7597231
000030 ed 0b d4 3e c4 db cc be 9b cd 97 be ff aa 2f bf
       0.4141535 -0.40011418 -0.29649052 -0.68620294
000040 95 3c 4e bf c2 a3 c5 3e 70 d9 a7 3e 94 23 5f be
       -0.8056119 0.386015 0.3278308 -0.21790916
000050 fc f4 6f be b0 40 c9 be 87 11 98 bd aa d1 4e be
       -0.23433298 -0.39307165 -0.07425218 -0.20197168
000060 4b cf 62 3e 17 0d 8c be fa e8 4d 3f ab 24 cf bd
       0.22149388 -0.27353737 0.8043362 -0.10114416
000070 e4 5a a0 be c7 21 08 bd 48 00 af 3f 00 00 ca 37
       -0.31319344 -0.033235338 1.3671961 2.4080276e-05
000080 fe fe d4 3d 3d 9f 9e be de 5d 89 be 3b 96 61 bf
       0.104001984 -0.30980864 -0.26829427 -0.8811986
000090 41 2b 35 bf 67 90 45 3e 03 d4 0c 3f 3d ce 12 3f
       -0.70769125 0.19293366 0.55011004 0.57345945
0000a0 a5 3e 0f bf 42 31 98 3e 32 e4 91 bd f6 b3 ed 3e
       -0.5595496 0.2972508 -0.07123603 0.46426362
0000b0 27 b9 4c 3f b8 f2 97 be a3 fb 05 be 5b a4 10 3e
       0.7997002 -0.29677367 -0.13084273 0.14125197
0000c0 31 03 ad bd a6 6c 90 3e 6a ba ce be 50 f1 5e 3e
       -0.08447874 0.28207892 -0.40376598 0.21771741
0000d0 60 d4 a9 be 00 a8 81 3e c2 c3 b0 be 1f 37 25 be
       -0.33169842 0.25323486 -0.3452435 -0.16134308
0000e0 1d b6 f8 be 99 45 10 3e c8 19 55 bf fa 41 e6 be
       -0.4857644 0.1408905 -0.83242464 -0.4497221
0000f0 ae 58 0e 3e 90 89 6f 3f 1e 85 85 3e ce 63 95 3e
       0.13901016 0.9356928 0.26078123 0.29177707
000100 73 e4 1d be d6 d4 42 bf 48 01 8b 3d 5b 7b 68 3d
       -0.15419178 -0.7610601 0.06787354 0.056758266
000110 94 27 1c bf 00 38 97 3e 53 67 90 3f 26 67 03 3f
       -0.6099789 0.29534912 1.1281532 0.5132927
000120 b1 d0 4f be 26 d3 3a 3f d6 82 49 3f d7 4c 80 3f
       -0.20294453 0.72978437 0.78715265 1.002345
000130 b3 3c ed be bb d7 4a 3d 88 26 0f bf 3d 25 f5 3e
       -0.46335372 0.049522143 -0.5591817 0.47879973
000140 bd 4d 4e be d6 41 9a 3e 43 22 03 bd a3 6b 3e 3e
       -0.20146842 0.30128354 -0.032015096 0.18595748
000150 db 8b 3a be e8 4b 52 3e b9 a5 9c be 3f ae 13 bf
       -0.18217413 0.20536768 -0.30595186 -0.57687753
000160 52 b5 3c be 74 84 de 3e 48 cb 06 be f0 a7 dc be
       -0.18428543 0.4346043 -0.13163483 -0.43096876
000170 78 01 a0 be 9d 69 43 3f ba 42 46 bd fa 13 85 3e
       -0.3125112 0.7633303 -0.04840348 0.25991803
000180 84 17 88 be 27 54 8d bf 30 8f ed bd 76 c1 c1 be
       -0.2658044 -1.1041306 -0.115995765 -0.3784291
000190 3a b6 87 3f 82 02 f6 be 61 bd 3e 3e 2e b4 47 3e
       1.0602486 -0.48048788 0.1862693 0.19502327
0001a0 6c f3 95 3a 3b 49 16 3f 4f 1d 8f bf 22 d2 03 3f
       0.0011440343 0.5870549 -1.1180819 0.5149251
0001b0 e7 6f 1d be 53 6a e8 be 45 16 74 3d 24 69 d7 bd
       -0.15374719 -0.4539362 0.05959155 -0.10518101
0001c0 98 66 60 3d 1c f5 97 3f 65 0d d9 be 60 55 40 bf
       0.05478534 1.1871676 -0.42393032 -0.7513027
0001d0 48 50 83 3e 31 16 fa be 57 c6 71 be 64 b5 d6 be
       0.25647187 -0.48845056 -0.23610817 -0.41935265
0001e0 54 cb 54 3e 3f 91 88 be 32 74 f0 be 4f 9e 9a bf
       0.20780689 -0.26673314 -0.4696365 -1.2079562
0001f0 d6 86 50 3e f5 34 28 3f 50 a5 f6 be 99 f5 58 3f
       0.20363936 0.65705806 -0.48172998 0.8474975
000200 76 bc aa 3e 4e c7 0b 3e 46 22 e9 be ca da 42 3e
       0.3334691 0.13650247 -0.4553396 0.19028774
000210 b5 b5 54 be 9f ec ee 3e 88 74 0e be ca 6d a4 3f
       -0.2077244 0.46664903 -0.1391164 1.2846005
000220 1b 02 cf be 93 b8 23 3e 4d 57 57 3e ec 2a 16 3e
       -0.40431294 0.15988378 0.21029396 0.14664811
000230 84 0c e8 be be 17 3f 3f 68 de ad be b3 c4 0b be
       -0.4532205 0.746456 -0.33958745 -0.13649254
000240 a3 48 c1 be fb 2a 41 bd 08 5f b5 3d 55 96 58 bf
       -0.3775073 -0.04716013 0.088560164 -0.8460439
000250 4e 9d f4 bd 21 cd 2e 3e 2d bc d7 3e 92 c8 21 3f
       -0.11944066 0.17070438 0.42135754 0.6319667
000260 74 ee 55 be d6 9f 6a bb 78 52 5f 3f c0 06 bd bc
       -0.20891744 -0.0035800836 0.8723521 -0.023074508
000270 e9 1e 35 3f 55 f9 2f be 93 25 b2 be fa 38 ce be
       0.7075029 -0.17184956 -0.34794292 -0.40277845
000280 b6 e7 bb 3d 99 c2 95 be bf c6 a3 be c7 0b e0 be
       0.09175055 -0.2925003 -0.3198757 -0.43758985
000290 91 ef 36 3f ec 22 89 3e b6 2d 37 bf 04 b9 85 3e
       0.714593 0.26784456 -0.71554124 0.26117718
0002a0 a7 b1 ed 3e c2 7a c4 be c1 66 ca be d9 9d da be
       0.464246 -0.38374907 -0.3953152 -0.42698553
0002b0 91 b2 9f be df 89 54 bf 0b 33 0b 3d 27 d8 5b bf
       -0.31190923 -0.83022875 0.033984225 -0.858767
0002c0 b3 07 01 bf 87 38 2f be b0 44 8d be ab d4 03 3f
       -0.50402373 -0.17111407 -0.27591467 0.5149638
0002d0 49 d3 c4 be fe 12 fe be 20 d7 b9 3c 2f 34 a1 be
       -0.38442448 -0.49623865 0.022685587 -0.31485125
0002e0 ba 04 74 3f cf ae 8b be 67 ab 5d 3f 2d b2 04 bf
       0.9531971 -0.27281806 0.86589664 -0.51834375
0002f0 27 e1 2b 3e e6 e0 53 3f 7c d7 7c be 62 a3 9b 3d
       0.16785108 0.8276504 -0.24691576 0.07599522
000300 2e 16 19 bd 80 6c b3 3b 00 e5 1b 3e 9b 6b 92 bd
       -0.037374668 0.0054755807 0.15224075 -0.0714943
000310 c3 d5 c4 be 54 d9 09 bd a1 8a ca 3d a6 0e 15 be
       -0.38444337 -0.033654526 0.098897226 -0.14556369
000320 bb ca 3e 3e 93 92 e6 be b6 cf e6 3e 2c d1 31 bd
       0.18632023 -0.45033702 0.45080346 -0.043412372
000330 4e 73 db 3b ff cf 4d bf 2c f1 5d 3d 61 c2 97 3e
       0.006697095 -0.803955 0.054185078 0.29640487
000340 0f d3 04 3f 64 3c a3 3e 3b 4c 1f 3f 94 52 6f be
       0.5188455 0.31882012 0.62225693 -0.23371345
000350 22 f2 11 bf a0 33 35 3d 2a 7e d3 be 71 85 05 3f
       -0.5701009 0.044238687 -0.41307193 0.5215674
000360 3a 37 b6 be 0c 15 cd bd fe 03 43 3e f0 4c 13 bf
       -0.3558901 -0.1001378 0.19044492 -0.5753927
000370 90 73 b3 be c3 b0 af be 95 4c e8 be 97 5e 2b 3e
       -0.35049105 -0.34314546 -0.45370927 0.16735302
000380 9c 38 68 be eb 6a 58 be df a6 66 3e 66 ef fd be
       -0.22677845 -0.21134536 0.22524594 -0.4959671
000390 6f 36 aa be fe 13 36 bd 62 e7 d8 be 96 18 cb 3e
       -0.33244655 -0.04445266 -0.4236403 0.39667195
0003a0 4e ba 89 be 2a 03 22 3f 00 bd ae bb 1c 19 d8 be
       -0.26899952 0.6328608 -0.005332589 -0.42206657
0003b0 32 8e 0e be 19 5b 8d 3e 12 52 d4 be 98 bd f6 be
       -0.1392143 0.27608564 -0.41468865 -0.48191524
0003c0 89 cc 5f 3f de fb 88 3e e8 23 25 bf 88 71 0a 3f
       0.8742147 0.2675466 -0.64507914 0.54079485
0003d0 d1 3c 89 be 59 a1 0e bf 33 b5 86 3e 6e ef 17 3e
       -0.26804212 -0.55714947 0.2631012 0.14837429
0003e0 3a c2 d7 be a1 22 3d 3e 5b 5d 80 bf e1 84 59 3f
       -0.4214037 0.18470241 -1.002849 0.8496838
0003f0 48 a8 4f 3f e1 88 84 3f 42 cb 04 be 6c a0 28 3e
       0.8111615 1.0354272 -0.12968162 0.16467446

text_emb_enc.weight f4 [256, 768]
000000 18 67 37 be 14 85 a7 3c 15 ad 3d 3d 17 56 d1 bd
       -0.17910421 0.020449199 0.046307642 -0.102214985
000010 07 a2 64 bd 06 a0 48 3d e8 72 0b 3c 15 66 80 bd
       -0.055818584 0.048980735 0.0085112825 -0.062694706
000020 72 a6 49 bd 47 2a 39 3d ea 3c 36 3e 45 9e 13 3e
       -0.049231 0.045206334 0.17796674 0.14415844
000030 0b b7 7b 3d 14 cf 14 3c 5c ee 20 3d c4 9f 86 3c
       0.06145386 0.009082574 0.039289817 0.016433604
000040 28 0c 18 bd f2 5d 4d bd cd 5b 4f 3c 33 eb 34 bd
       -0.037120968 -0.05013842 0.012656164 -0.044169616
000050 b8 c0 01 bd 9e 4d 90 3d 58 8e 22 3d 40 77 ab 3d
       -0.03167793 0.07046054 0.03968653 0.083723545
000060 71 7c 46 bd aa d3 d8 3d 12 1e d4 3b 3f 23 b9 bd
       -0.04845852 0.10587247 0.006473311 -0.09039926
000070 5d 8f 4a bd e1 b9 0c be 55 4d be 3c 6e f8 cc 3c
       -0.049453128 -0.13742782 0.023230234 0.025020804
000080 43 55 1e be ad 27 5c 3c e6 18 9b bc 4d 1b 72 3c
       -0.15462212 0.013437194 -0.018932771 0.014777017
000090 04 e7 9b 3c c7 7f bf 3b 7e 09 5d bc ad aa 33 3b
       0.019031055 0.0058440897 -0.013491033 0.0027414963
0000a0 cb 46 9f 3c b8 43 d0 3c 39 59 4d 3c 62 58 40 3d
       0.019442936 0.025422916 0.012533479 0.04695929
0000b0 98 d4 17 bd ce 79 47 bd 2b 27 d3 3d 0e b1 bf 3d
       -0.03706798 -0.048700146 0.10310205 0.093599424
0000c0 24 c0 b8 bd 67 b7 3a 3d 7b ca a6 3d 75 94 13 bd
       -0.09021023 0.045585062 0.08144089 -0.03603025
0000d0 ec a4 a3 bc 11 f0 00 be f8 7a 1a 3d 91 4c ef 3c
       -0.019976102 -0.12591578 0.03771493 0.029211314
0000e0 93 5f 58 3c df e7 5c bd a8 8b 1d 3e e8 2c 7e ba
       0.01320638 -0.053932067 0.15385306 -0.00096960226
0000f0 81 79 b4 3d 69 14 97 bb 57 73 bc 3d 16 4f e3 bd
       0.088122375 -0.0046105874 0.09201687 -0.11099069
000100 e4 2b 5b bb f3 ef 99 3c 37 12 12 3d c1 ca 76 bd
       -0.003344291 0.018791175 0.035661902 -0.060251955
000110 1e cf 5b bd 3f ae c6 3c ae f5 ab bb f5 bb 66 3b
       -0.05366432 0.024253009 -0.005247793 0.0035207246
000120 1d 09 44 bd 6d 96 0d 3d be 15 2c bd ec db 7f bd
       -0.047860254 0.034567285 -0.042012922 -0.062465593
000130 be 4f 55 bc 9e a7 86 3d 18 ab ae 3d c3 3e 2e 3e
       -0.0130195 0.06574939 0.08528727 0.17016129
000140 35 d7 76 3c a9 67 16 3c e6 62 97 bd 24 a3 e2 3a
       0.015065958 0.009179988 -0.0739191 0.0017291051
000150 d6 24 dc ba 9b bd 99 3c 99 ed ab bd aa c3 8d bc
       -0.0016795646 0.018767169 -0.083949275 -0.017305214
000160 1e 03 19 3d c1 62 83 3c 94 0a e8 bc fb 0e 60 3d
       0.03735649 0.0160383 -0.028325357 0.054701786
000170 7e 62 c8 3d d9 5c 8a 3c 59 fe 0c bb 77 61 e7 3c
       0.09784411 0.016889976 -0.0021513908 0.028244717
000180 e6 4e 4b 3d 33 61 71 bc 80 29 67 3c c1 5c e0 bc
       0.04963579 -0.014732647 0.014109015 -0.027387979
000190 03 7c a5 3d db 22 9b bd 5b 30 f4 bd 6b 66 b0 bc
       0.08080294 -0.075750075 -0.119232856 -0.021533212
0001a0 3c 1c 59 3b 34 f6 ea bd 8f 55 ac bd e1 dd 57 bd
       0.0033128401 -0.11472741 -0.084147565 -0.052701835
0001b0 07 db 6a bc ed 29 95 bd c1 3f 5a bc 91 19 0d be
       -0.014334447 -0.07283387 -0.013320864 -0.13779284
0001c0 8b ee 4e 3e 7b 7c ed 3c f6 42 72 bd 8b 77 36 bd
       0.20208184 0.028990021 -0.05914589 -0.0445476
0001d0 9a 43 76 3c 40 ac 0b 3e 22 62 36 3b b1 43 90 bd
       0.015030766 0.13639927 0.0027829488 -0.07044161
0001e0 22 fa 3f bd b3 5a 54 bd bb 52 15 3e fa 8e 33 bb
       -0.046869405 -0.05184431 0.1458234 -0.0027398453
0001f0 a9 6f 1b be da e6 cb 3c 66 1c a4 bc 2b bd f9 3c
       -0.15179314 0.024890352 -0.020033073 0.03048571
000200 c7 f0 fb 3d 98 ea d6 ba 46 75 36 be 99 54 a5 3c
       0.12301784 -0.0016396819 -0.17818174 0.02018194
000210 a2 5c d8 bc 83 6b 1a 3d 97 5f 48 3d c1 89 3a bc
       -0.026411358 0.037700187 0.048919287 -0.011385382
000220 e2 ba f0 3b fe ce a4 bd 64 cb 89 bd 38 41 2c 3e
       0.007346497 -0.08047293 -0.06728247 0.16821754
000230 52 85 f9 3b 8a 1f 2e 3c db 8b 32 bd 9c b3 8f bd
       0.00761477 0.010627637 -0.043590408 -0.0701668
000240 2b 96 12 be 90 58 a9 bc d0 b1 c7 bd b2 dc e2 bc
       -0.14315097 -0.020672113 -0.09750712 -0.027693126
000250 76 0c 1c 3e 7e 22 e0 bd e9 9f 51 3d 44 9e 0c 3d
       0.15239128 -0.10944079 0.051177893 0.03433062
000260 07 66 f1 bb e1 96 78 3d 4a 08 c1 bd 1e f6 02 3d
       -0.007366899 0.060690764 -0.09425409 0.031972997
000270 55 02 a6 3d 6f 4d b9 bd 29 0f 18 be 8c 71 fb 3c
       0.081059135 -0.090479724 -0.14849533 0.030693792
000280 e1 38 8a bc d6 92 b0 3b 49 cf 5e bd ae 88 99 bd
       -0.016872825 0.005388598 -0.0543969 -0.07496773
000290 e9 46 9a bd fb b9 09 be b1 5b 00 bc 6c 11 b1 ba
       -0.07533056 -0.13449852 -0.007834361 -0.001350922
0002a0 7a 00 62 bd 80 b2 1a 3d 5a 65 af bc 40 07 16 bd
       -0.055176236 0.037767887 -0.021410633 -0.036628008
0002b0 ee 58 6b 3b 83 a3 ab bd e5 09 27 bd 6f f0 c8 bd
       0.003591116 -0.08380797 -0.04078092 -0.09811484
0002c0 23 fa c4 bc 4e d7 cb bd 0e 45 96 3c ae 5c e2 3d
       -0.024045056 -0.099531755 0.018343475 0.110528335
0002d0 30 1e 6e bd 71 50 01 bd f1 c8 e9 bc 6b 37 a1 bc
       -0.058134258 -0.031570856 -0.0285382 -0.019679746
0002e0 97 e5 f3 3d 8d 9e 7c bc 81 2e dd bc 00 96 0b 3e
       0.11909025 -0.015418661 -0.026999714 0.13631439
0002f0 89 40 58 3d 92 a0 f7 bc 5c ad 2a 3e 09 36 1c 3d
       0.05279592 -0.030227933 0.16667694 0.03813747
000300 46 b4 ab 3b cc 9c d1 3d bf aa 42 bd dc 21 99 3d
       0.005239996 0.10234985 -0.047526117 0.07477161
000310 0a 8c 99 3d 33 44 5a bc 19 dd 9c bc de 31 97 3c
       0.074974135 -0.013321924 -0.019148396 0.018456396
000320 75 ad aa bd a7 b0 57 bb 6f 19 73 bd a2 b3 c5 bd
       -0.083338656 -0.003291169 -0.059350427 -0.09653403
000330 de 9e 1b bd 94 7c 9d 3c d8 c8 ac 3d 03 a7 d6 3d
       -0.037993304 0.019224443 0.084367454 0.10481074
000340 de e3 bd 3c e6 49 bd 3d fc cf b1 bc 1d e8 5e bc
       0.023179945 0.09242611 -0.02170562 -0.013605145
000350 2b f9 28 3d 53 ad 6c bd 84 77 4f 3c 25 fe 05 bd
       0.04125325 -0.057782482 0.012662772 -0.032713074
000360 7b bc 3c bc 2a d2 06 bd ab 3f 22 3d c1 d3 d0 3c
       -0.011519547 -0.03291527 0.0396115 0.025491597
000370 3f 16 a0 3d 61 f1 09 3e e1 e4 a4 bc 76 4b ad 3b
       0.07816743 0.13470985 -0.02012867 0.0052885367
000380 52 22 06 3d ae 89 b7 bd 2f 74 14 3e 3c db b8 3d
       0.032747574 -0.08961807 0.14497446 0.09026191
000390 68 80 9a bc a5 40 bc bd e5 11 b8 3c 12 fd a2 bb
       -0.018860057 -0.091920175 0.02246947 -0.004974016
0003a0 f8 53 4b 3d 60 5a b9 3c 0b 1a bb bd 40 54 f6 bd
       0.049640626 0.022626102 -0.09135827 -0.12027788
0003b0 ac 1e 17 3c 2b ad 82 3d 40 3b b9 39 0d fe 4b ba
       0.009223621 0.063806854 0.00035330094 -0.0007781692
0003c0 1d 50 8c 3d 72 7f 86 bb bc 3d 00 3d d5 8a f7 3d
       0.06851218 -0.004104548 0.031308874 0.12087027
0003d0 38 bd 5a 3c 5d 5b 96 bd 46 28 fa bb 4a 8d 67 3d
       0.013350777 -0.07341645 -0.0076341955 0.056531228
0003e0 0b 20 ee b9 7a 92 f5 bd 77 ec 48 bd a3 83 24 3c
       -0.0004541877 -0.11990829 -0.049053635 0.01004115
0003f0 93 f8 01 3d cb 8b be 3d 68 ee 20 3e 85 12 d9 3c
       0.0317312 0.09304007 0.15715945 0.026498089

text_emb_enc.bias f4 [256]
000000 17 b1 15 3c 3e 6e 07 bb f0 8f 11 bc 84 67 8a bc
       0.00913646 -0.0020665075 -0.008884415 -0.016895063
000010 02 4f e6 38 9c d3 59 3e ec 9d 85 bc be cd 13 3c
       0.00010981971 0.21272129 -0.016310655 0.009021221
000020 71 f5 b9 3d d0 b7 99 3c 3c 80 74 3e 09 8d 43 3d
       0.09080017 0.018764406 0.23877043 0.047741923
000030 2c 96 53 bc a7 01 82 3e bb 16 1d 3d 9f b7 3b 3d
       -0.012914222 0.25391886 0.038351756 0.04582941
000040 f0 6d 79 3c a0 2f 10 bd bb 46 24 bd 77 de 47 3e
       0.015223965 -0.03520167 -0.040106516 0.19518457
000050 65 51 72 bb 5c 69 22 3e 66 35 d3 bc e4 44 47 3d
       -0.0036974784 0.15860504 -0.025782298 0.048649684
000060 19 ab 88 3e 86 d7 06 bd a6 08 02 3d 1b 6f 4d 3c
       0.26693037 -0.032920383 0.03174653 0.012538697
000070 ca 7c 07 3d 7a 99 21 3e 7b 67 fe bc 35 31 c6 bc
       0.033077992 0.15781203 -0.031055203 -0.024193386
000080 92 18 8c 3e a8 c5 51 bb 13 82 f0 3b fd e9 b2 3e
       0.27362496 -0.0032008681 0.007339725 0.34944144
000090 9b 7f 6c bb da e5 3e 3b 78 45 17 3e 39 33 ff bc
       -0.00360868 0.0029128701 0.14772594 -0.031152355
0000a0 64 07 85 3d f5 20 89 3e d8 64 c5 3c dd ed 03 3e
       0.0649555 0.26782957 0.024095938 0.12883706
0000b0 e1 bb 25 3e a9 c6 8a 3c d8 02 64 3e 8d 38 45 3b
       0.16184951 0.016940432 0.2226671 0.0030093521
0000c0 3b 52 37 3c 00 35 0f bd 80 78 cc 3c d9 fd 63 3e
       0.011189039 -0.034962654 0.024959803 0.22264804
0000d0 c2 1b 6e bc 6f ee a3 bc a7 4f 11 bc 9b f6 b7 bc
       -0.014532985 -0.020011155 -0.008869088 -0.022456458
0000e0 b0 a0 4f 3e b7 73 4f 3e 22 f9 9d 3e 2c 2f a0 3e
       0.20276141 0.20258985 0.30854136 0.3128599
0000f0 91 30 34 3d f5 7e 5c 3d 7b 16 4d bd fb 52 f1 b8
       0.04399163 0.053832013 -0.050070267 -0.00011507232
000100 d2 23 96 3e f4 01 d9 3c 8b 3e b6 bb bd 28 8b bc
       0.29324204 0.02649019 -0.005561655 -0.016987199
000110 8d 1d 1c 3e 1b ca 08 3d 93 65 a0 bc a5 82 17 bc
       0.15245648 0.033395868 -0.019579684 -0.009247457
000120 b1 27 25 bc 1f dc 9b 3c c8 37 86 bb a4 f5 93 3c
       -0.010080264 0.01902586 -0.004096005 0.018061467
000130 a8 c4 1c bc 06 db 95 3d ce b0 25 3e 1b 7d e9 3d
       -0.009568371 0.07317166 0.16180727 0.11400815
000140 cd f2 0d bc 3f c0 b9 3c f2 93 a1 3c 2a 5a 3d bc
       -0.008663845 0.022674678 0.019723866 -0.011557141
000150 80 3e 14 bd 71 3f 03 3c 39 3c ad 3d e0 d0 65 bc
       -0.036192417 0.008010731 0.08458752 -0.01402685
000160 73 f4 a5 3b 85 14 78 3e 7e 4e 30 bc a0 da 16 3e
       0.005064541 0.24226578 -0.0107609015 0.14731836
000170 7a b2 18 3d bc 24 e3 bb 76 d1 fd bc dd cd c6 3c
       0.037279584 -0.0069318693 -0.030983668 0.024268085
000180 43 99 4e 3e b7 47 36 3e 78 74 eb 3c 0b a2 0b 3e
       0.20175652 0.17800795 0.02874206 0.13636033
000190 1b 2f 70 3e d8 62 e2 bc a8 78 bf bc db 25 23 3e
       0.2345547 -0.027635023 -0.023372963 0.1593241
0001a0 a7 02 07 bd 9b 65 0b bd dc ae 40 bc b8 27 aa 3c
       -0.032961514 -0.034032445 -0.01176044 0.020770893
0001b0 e9 e3 06 3c 54 54 21 3e eb cd d8 3b ec 0e 13 3e
       0.008233049 0.15754825 0.006616344 0.14361161
0001c0 d4 df 76 3e 5a 29 4c 3e c5 38 84 3e 98 a3 9f bc
       0.24108821 0.1993765 0.25824562 -0.019487187
0001d0 88 83 01 bc 2a 5a ed 3c d7 d1 8b ba 2c 1e 93 bc
       -0.007904895 0.028973658 -0.0010667396 -0.017958723
0001e0 66 d8 65 bc 74 0d db ba 21 bb 53 3e d8 37 a6 3e
       -0.014028644 -0.0016712383 0.20676853 0.3246448
0001f0 fe 5b 9c bc 99 bc ec 3c de f8 72 3e 87 62 3d bc
       -0.019086834 0.028898524 0.23727748 -0.011559135
000200 12 28 c1 3b d9 4b 65 bd 66 94 10 3e dc a3 12 3d
       0.0058946693 -0.055980537 0.1411911 0.0358008
000210 8e 8b 3b 3d 13 dd 5b 3c f4 d4 20 3d eb a9 2a 3c
       0.045787387 0.013419407 0.039265588 0.010416488
000220 19 8a 48 3e 5b 5c 3d bc 9a a5 df 3c 09 6d 5e bc
       0.1958393 -0.011557664 0.027300645 -0.013575801
000230 af 21 f8 3d 21 0a 2c 3d 25 2e 10 bd 15 17 fb 3c
       0.121158 0.042001847 -0.035200257 0.030650655
000240 d0 c2 7e 3d 5f 94 f0 3b 90 b9 46 3e b8 2a fc bc
       0.062197506 0.007341906 0.19406724 -0.030782089
000250 fc 8c 00 3d f7 f3 82 3e b3 ac 74 3e a5 6d 25 3e
       0.031384453 0.25576755 0.23894005 0.16155107
000260 97 59 3d bd 1e 01 c0 3d 90 97 23 3e 63 37 df 3c
       -0.046228018 0.09375213 0.15975785 0.02724809
000270 a8 a1 b0 3a 1c 43 f3 3c ed ff 1e bd c5 7e 5e 3d
       0.0013475912 0.029695086 -0.03881829 0.054320116
000280 b7 38 e9 3c 3f e3 ec 3b dd 52 90 3c ca 1b 86 3e
       0.028469427 0.0072292383 0.017617637 0.26193076
000290 6b 3e aa 3c 9a 5f 91 3e 81 57 24 3e 86 9a b8 3c
       0.020781716 0.2839325 0.16049005 0.02253462
0002a0 5e fe 0a bd 20 dd c5 3c 8b 43 6a 3e 9a 78 92 3c
       -0.03393399 0.024153292 0.22877328 0.017879773
0002b0 74 26 11 bb 7c 62 78 3e fc bc 4b 3d 0b ba 39 3e
       -0.0022148164 0.24256319 0.049740776 0.18137376
0002c0 6d 64 2d 3e 46 c2 17 3e 6d 86 13 3e f1 44 18 3e
       0.1693284 0.14820203 0.14406748 0.14870049
0002d0 ac 35 c3 bc bb 29 af bc 5c e2 91 3d bf c4 88 bc
       -0.023829304 -0.021382203 0.07123253 -0.016695378
0002e0 8a 4e 00 bb ed 92 fe 3d bf e0 64 3e 99 3f 95 ba
       -0.0019578063 0.124303676 0.22351359 -0.0011386751
0002f0 fa 57 34 3e 76 51 ca 3d 06 28 3c 3c ae e1 bc 3c
       0.17611685 0.09878819 0.011484152 0.023056831
000300 8b 9b 35 bc 7b f6 0e bc d0 47 22 3e d8 61 33 bd
       -0.011084448 -0.008725758 0.15847707 -0.043794483
000310 35 b4 8f bc 13 c9 0a bd 59 ca 42 3e 8d 8e 33 3c
       -0.017541984 -0.033883166 0.19022502 0.01095928
000320 4a 9c 28 3c 1a 92 d1 3d 3b 74 ff 3d 39 78 16 3e
       0.0102911685 0.10232945 0.12473341 0.14694299
000330 e4 1d 4e 3d 99 45 94 bc 62 bd 83 bd 9a bb 7c 3a
       0.050321475 -0.018099593 -0.06432606 0.0009640992
000340 d1 66 26 3e dd 11 60 3c 2d ed 8e bc 17 3d cc 3b
       0.16250159 0.013676134 -0.017447079 0.0062328684
000350 0b 70 03 3e 53 4b d4 3c e2 3b d5 bc c9 28 00 3c
       0.1283571 0.025914824 -0.02602953 0.007822224
000360 37 aa 0b bc 8d 53 09 3d 70 5d 00 bd 5e 16 53 39
       -0.008524469 0.033526946 -0.03133911 0.0002013086
000370 0e 48 19 bd 08 bb 9f 3e aa e0 aa 3c 7b a9 41 bc
       -0.037422232 0.3119738 0.020859081 -0.011820192
000380 fc 53 a8 bc 9f 0e eb bc 9c f9 ee 3c 1a f2 8a bc
       -0.02054786 -0.028693495 0.029171757 -0.016961146
000390 93 0f 80 3a d1 1e bb 3c f1 ca 45 3c 8a 43 74 3e
       0.0009770266 0.022841843 0.012072311 0.23853889
0003a0 1b 78 50 bc c6 3c 65 3c a3 14 91 bb 9f e4 2e 3e
       -0.012723948 0.01399154 -0.004427509 0.170794
0003b0 a0 c2 90 3c 17 e1 f4 3c be a9 27 3e 04 cf 67 3e
       0.01767093 0.029892487 0.16373345 0.22637564
0003c0 dc 2d 4f 3e 1c b0 70 3e 1f 03 0e bc d2 b7 86 bc
       0.20232338 0.2350468 -0.008667736 -0.016445074
0003d0 fc a6 8d 3c d5 a5 60 3e fb a6 db bc 74 96 5f 3e
       0.017291538 0.2193826 -0.02681302 0.21834737
0003e0 66 12 2a bc 64 7d a9 bc 89 4c 27 3e eb 6e 3b 3e
       -0.010380363 -0.020689674 0.1633779 0.1830403
0003f0 6c 06 e1 3a 23 75 e2 bc 4a 60 58 bc a5 e8 96 bc
       0.0017168052 -0.027643746 -0.013206551 -0.01842148

symb_enc.weight f4 [3, 256]
000000 04 81 87 3f fe 7a dc 3f 6e a8 c6 be 6c 72 b7 3d
       1.0586247 1.7225034 -0.38800377 0.08957371
000010 12 f3 2f bf 3c 57 12 3f 0e b1 22 bf 4a 84 be be
       -0.6873027 0.5716436 -0.63551414 -0.37210304
000020 ce 34 1c c0 21 ae 8c bb 5d 3a 56 3f 0d ae 9c bf
       -2.440723 -0.0042932187 0.83682805 -1.2240616
000030 6b 6a 66 3f 6b 5b 3d 3f 84 f1 60 3e 19 2c bc bf
       0.9000613 0.7396762 0.21967131 -1.4700958
000040 ef 41 90 3f 55 a2 8f 3e ad 03 16 be e2 f9 82 be
       1.1270121 0.28053537 -0.1464984 -0.2558127
000050 e1 fe db bd e9 39 72 bf b0 6d 8d 3f c3 39 53 bf
       -0.10741974 -0.94619614 1.1049099 -0.8251001
000060 17 bb 94 3f 84 f7 36 3f 6a 91 20 be 77 f8 9b bf
       1.1619595 0.7147143 -0.15680471 -1.21852
000070 f1 86 d1 be 72 f0 ef 3e 91 df 58 3f b9 50 34 3f
       -0.40923265 0.46863133 0.84716135 0.70435673
000080 4c c0 a0 3e ab 03 ca be 4c a1 cf bf 3d 6d e3 bd
       0.3139671 -0.39455923 -1.6221099 -0.1110482
000090 49 b8 72 bf c7 3c fe bf 05 02 f6 3e 2d 62 43 3e
       -0.94812447 -1.9862298 0.48048416 0.1908042
0000a0 60 1f 8d 3f 32 2c 96 3f f1 21 ad bf ce 59 0c c0
       1.10252 1.1732237 -1.3525983 -2.1929812
0000b0 ac bf d5 bf a1 c2 7f bf de ac af be d3 4b 45 3f
       -1.6699119 -0.99906355 -0.34311575 0.77068824
0000c0 2c 7a 14 3f 50 29 4a bf 54 5b a1 3e 15 ba b8 bf
       0.5799892 -0.7896929 0.3151499 -1.4431788
0000d0 5c 93 88 be d3 76 05 3f 71 49 74 3f 8e 59 4a 3f
       -0.26674926 0.52134436 0.9542456 0.790429
0000e0 19 9b 87 bf e8 ce 01 bf 80 4c 0c c0 8b b6 d3 bf
       -1.0594207 -0.5070634 -2.1921692 -1.6540083
0000f0 b3 e0 03 bf ba 33 f0 be 52 bd b6 bf 99 15 32 be
       -0.5151474 -0.46914464 -1.4276526 -0.17391051
000100 82 1f 5f bf 2a 0f 07 3f ed fe 49 bf 1c bb ea 3f
       -0.8715745 0.52757514 -0.7890461 1.8338351
000110 ef 83 76 bd 56 91 81 bf fe 96 63 bf 85 c3 ec 3f
       -0.060184415 -1.0122478 -0.8890227 1.8497168
000120 fb 84 8e bf ad 79 17 bf b4 e9 65 bf 82 01 c6 3e
       -1.1134332 -0.5917004 -0.8980973 0.38673025
000130 ca af b0 3e 29 a3 8d bf 8e a9 a6 3f a9 08 22 bf
       0.34509116 -1.1065418 1.3020494 -0.63294464
000140 86 da cf bc be 3a 07 c0 27 19 d6 3f 67 22 89 bc
       -0.025372755 -2.1129603 1.6726426 -0.016740037
000150 01 63 11 bf c3 87 a4 3e 91 0f 44 bf 14 38 a3 bf
       -0.5679169 0.32134828 -0.7658625 -1.2751489
000160 90 15 4e 3f 0e c0 28 bf 4c e8 26 3e 70 cd 47 be
       0.8050165 -0.6591805 0.16299552 -0.19511962
000170 18 91 5d 3f de c0 78 3e 76 54 18 bf 58 3c 23 be
       0.8654952 0.24292323 -0.5950388 -0.15940988
000180 78 92 cc bd 30 4d cb be df ab 24 b9 c6 dd ab bf
       -0.09988874 -0.39707327 -0.00015704286 -1.3427055
000190 63 42 9a bf 01 ab 47 3d c0 71 83 3f 7a 5b f9 3c
       -1.205151 0.048747066 1.0269089 0.030439127
0001a0 3c 60 4c bd 40 a9 4f 3f 75 f8 50 3e 58 1c 67 3f
       -0.049896464 0.8111763 0.20407279 0.90277624
0001b0 b8 ef 41 bd 13 a8 9a 3f ed 28 cd be 4a 03 48 ba
       -0.047347754 1.2082542 -0.40070286 -0.00076298846
0001c0 3c cb 8c bf c4 5c 76 be 47 80 eb be 0c 26 80 bf
       -1.0999522 -0.24058825 -0.45996305 -1.0011611
0001d0 56 1b f3 be a2 1d 21 3f 92 e0 1f 3f de d2 ae 3f
       -0.47481793 0.6293584 0.6245204 1.3658102
0001e0 1f 6f 3a bf c1 f7 89 3f 16 b9 88 3f e0 7e d2 be
       -0.7282581 1.0778733 1.0681484 -0.41112423
0001f0 52 2a d0 3e 65 e3 92 3f 66 68 a3 be 5d 3f ef 3d
       0.40657288 1.1475645 -0.31915587 0.116820075
000200 e2 e2 8b bf b1 74 cf be da 9e bc 3e 7e 75 ce 3f
       -1.0928614 -0.40518716 0.36839944 1.6129606
000210 a9 e7 c2 be 4b 16 06 3f ab 2e f5 bd 72 0a 64 3e
       -0.38067368 0.52377766 -0.11971792 0.2226961
000220 a3 d4 62 bd 16 31 5f 3e dc 65 d6 bf fc e9 0c be
       -0.055378567 0.21796069 -1.6749835 -0.13761133
000230 46 05 2e b9 82 d2 09 40 4f 44 0e bf 21 71 39 3f
       -0.00016595898 2.1534734 -0.5557298 0.72438246
000240 7d 34 11 bf 64 1c 59 3f 99 34 e3 3e 49 1f 08 3f
       -0.56720716 0.84808946 0.44376066 0.5317274
000250 bf e4 3e bf 0d 05 33 be 7b 11 b5 bf 20 61 21 bf
       -0.7456779 -0.17482395 -1.414596 -0.63038826
000260 ea cf 97 3f 72 73 00 3f 16 c2 de bf 10 05 b9 3f
       1.1860325 0.50176156 -1.740298 1.445467
000270 15 64 78 3f 55 b9 30 be ab 10 4d 3f 43 0d d0 3f
       0.97027713 -0.17258199 0.8010356 1.6254047
000280 b4 bf f9 bd 01 07 07 c0 e1 dc 7b be 5e 53 06 bf
       -0.121947676 -2.1098025 -0.24595977 -0.5247096
000290 3f 00 78 3f 65 22 69 3f d9 8d 7f 3e 5e 61 11 3f
       0.96875376 0.91068107 0.24956454 0.56789196
0002a0 ab 34 f0 bd 8b 7d b8 3f ae e2 cc bf a2 1c 0e 3f
       -0.117287956 1.4413313 -1.6006677 0.5551244
0002b0 ae 34 82 be bb 32 64 bf 45 e1 80 be 50 da 9d 3f
       -0.25430816 -0.8913991 -0.25171867 1.2332249
0002c0 64 76 ab be 41 81 05 c0 fa cf 75 bf 08 49 fb bf
       -0.33488762 -2.086014 -0.9602047 -1.9631662
0002d0 73 f2 a9 bf e7 d1 56 3e 9b 0e 20 c0 86 a9 e1 3e
       -1.3277115 0.20978509 -2.5008914 0.4407465
0002e0 97 f9 1a 3f 5e 31 86 bf b3 7b 42 bf bb 6e a0 be
       0.60537094 -1.0483816 -0.7597 -0.3133448
0002f0 cb e7 16 3e 4c 87 66 3d 30 31 a1 3f db da a3 3f
       0.1473686 0.056281373 1.2593136 1.2801164
000300 8a 79 1b 3f 56 23 28 3f a5 e9 b3 3e 1b 5e 38 3e
       0.6073233 0.6567892 0.35139194 0.18004648
000310 a4 e4 d8 3e 31 50 47 3f 11 5f b5 bf bc 4c 62 3e
       0.4236194 0.7785674 -1.4169637 0.22099584
000320 74 5b 28 3e 00 b9 4e bf bb f1 d6 be 07 1a f1 3f
       0.16441137 -0.8075104 -0.419813 1.8836068
000330 1c 96 8c 3f 2d c1 41 3f 03 d6 61 bf 44 cb 47 3e
       1.098331 0.7568539 -0.8821718 0.19511133
000340 30 35 0d 40 14 d0 a5 3f df 32 ca bf 92 e6 0b be
       2.2063713 1.2954125 -1.5796775 -0.13662174
000350 d1 55 96 bf 5e 5c f9 3f fa e9 d9 3e d1 72 d3 bd
       -1.1744939 1.9481313 0.42561322 -0.10324634
000360 3d 9e d6 3e d8 ed 95 bf c0 76 55 bf d9 68 9b 3e
       0.419176 -1.1713209 -0.83384323 0.3035343
000370 f0 2b f4 3e 0f bf 2d 3f a0 50 89 3e 67 ac 02 3e
       0.47689772 0.6786966 0.26819324 0.12761079
000380 72 f5 45 bf 76 38 a7 be 4a f2 29 bf ec ed fe 3e
       -0.77327645 -0.32660264 -0.6638533 0.49790895
000390 8f f7 a8 3e 72 43 98 bf 73 07 ca be c5 b7 85 3f
       0.33001372 -1.1895583 -0.39458808 1.0446707
0003a0 28 0b 9b bf 1d 3c 38 3f 99 d1 99 3c 1e d9 ff be
       -1.211278 0.71966726 0.018776702 -0.49970335
0003b0 31 17 78 3f 9c e2 a5 3e f1 db b5 b9 9c 25 4f 3f
       0.9691039 0.32399452 -0.0003468688 0.8091676
0003c0 f3 b5 4c 3e 6a f9 f5 be 7d 4f db 3e bd 3f 59 bf
       0.19991283 -0.4804185 0.42834082 -0.8486288
0003d0 e8 2f db be a3 f1 db 3e fa 91 81 ba 2a 8b dc 3f
       -0.42809987 0.42957792 -0.0009885423 1.722997
0003e0 eb fb 9b bf db b6 04 bf 3f 39 36 bf 8b d6 a3 bf
       -1.2186254 -0.51841515 -0.711811 -1.2799848
0003f0 8e 6b 6c ba c6 1c e6 be 0c 3e bd 3f b2 91 b8 3d
       -0.00090187124 -0.44943827 1.478456 0.09012164

fc1.weight f4 [1, 1280]
000000 ca fe 97 bd 78 0e be bc 1b 34 94 bc 64 5c 86 3c
       -0.07421644 -0.023200259 -0.018091252 0.016401477
000010 ff a5 36 bc a7 7c b4 3c 29 f1 c5 3a 36 a0 46 bc
       -0.011147975 0.022032095 0.0015101779 -0.012123158
000020 51 30 eb 3b 70 df a9 bb 60 2a c1 3c 63 32 bc bc
       0.0071773906 -0.0051841065 0.023579776 -0.022973245
000030 6e 6c 4b 3c ba 31 0d 3d a0 95 8b bc 31 06 52 bd
       0.012415988 0.03447125 -0.01703912 -0.051275436
000040 8c f0 5a 3a ce 8c 50 ba 32 06 6a ba 6f d8 b4 3c
       0.00083518843 -0.0007955552 -0.0008927315 0.02207586
000050 7e f2 57 3c 27 3c 52 3c 92 bf d8 3c 7e 50 49 bd
       0.013180373 0.012831724 0.026458535 -0.04914903
000060 28 e7 08 3d 53 92 42 bd a8 e1 e2 bc b9 0d 30 3c
       0.033423573 -0.047502827 -0.027695492 0.010745459
000070 64 bc 0b bc 5e ed 4d 3c d5 c8 b7 3c e9 8d bb bc
       -0.008528803 0.0125688 0.022434631 -0.022894816
000080 e7 15 10 3d 7c b9 9b 3c 3c 19 16 bc 85 94 3e 3d
       0.035177138 0.019009344 -0.00916129 0.046528358
000090 35 ec 12 bd 27 e4 75 3c 7c a4 33 3c 65 72 4e bd
       -0.035869796 0.015008009 0.010964509 -0.050402064
0000a0 30 df 01 bb a4 09 ea 3c 61 3d c7 3c 4c be 41 3c
       -0.0019816868 0.02856905 0.02432126 0.0118251555
0000b0 bf d0 5f 3c a6 59 10 bc a3 2c a4 3c 53 01 35 bc
       0.013660609 -0.008810436 0.020040816 -0.011047679
0000c0 a5 fd 0b bd 48 2c 2d bc 42 cc 02 bd c0 53 e8 3c
       -0.03417744 -0.0105696395 -0.031933077 0.028360248
0000d0 b3 eb 21 bd af cb 8b 3c b0 03 74 3c 68 0b 99 3b
       -0.03953142 0.017064897 0.014893457 0.004670549
0000e0 0b cc e7 3c 68 30 8d 3c 37 be 2c 3d f0 1e 2b 3d
       0.028295537 0.017234996 0.04217359 0.04177755
0000f0 d1 ae 75 bd 07 fd a8 bc 9e 34 81 3a 12 5c 0c ba
       -0.05998117 -0.020628465 0.00098576 -0.0005354296
000100 f7 40 07 3d df ea 18 bd bb 3b 8c bd fa 39 4b bd
       0.03302094 -0.037333366 -0.0684733 -0.049615838
000110 4a 3f 7a 3c 27 3b 96 bc 83 fa 33 3c 89 7e 82 bc
       0.015273878 -0.018338753 0.01098502 -0.015929477
000120 19 a2 df 39 13 e0 17 bd 9b 1e a0 bd 70 20 fb 3b
       0.00042654647 -0.03707893 -0.078183375 0.007663779
000130 52 6e 46 bd d6 94 b2 b9 4f d7 64 3c 2a 53 72 3b
       -0.048445053 -0.00034061697 0.013967349 0.003697584
000140 05 55 7e 3a a5 07 14 bd cb 7c 7e 3c 33 bb ba 3c
       0.0009702 -0.036140103 0.015532683 0.022794342
000150 a2 a6 2c bc 8d 15 bd 3c 7a 4a a0 ba b0 e9 be bb
       -0.010537775 0.023081565 -0.0012229227 -0.0058261976
000160 f0 6c ab bc ff 8d ce 3c b0 bd 07 bd a6 16 6b 3c
       -0.020925969 0.025214193 -0.033139884 0.0143486615
000170 a4 52 23 bd a5 5e 48 3c 64 e2 c1 3c c4 6c ba b8
       -0.039873734 0.012229596 0.023667522 -8.88943e-05
000180 d4 f8 e4 3c 77 cb b1 3c 43 b5 e2 bc 73 2e be 3a
       0.027950682 0.021703465 -0.027674323 0.0014509693
000190 f6 1f bf 3c c6 d7 c3 39 43 7b 65 bb 0a 70 22 3c
       0.02333067 0.00037354062 -0.0035016097 0.0099144075
0001a0 d4 db 4c bd c4 a4 08 bc e4 24 1f bc eb d1 6b bd
       -0.050014332 -0.008340064 -0.009713385 -0.05757324
0001b0 fc 28 cd 3c 3b da fd 3b 74 9e 02 bc 4e d9 f6 3b
       0.025043957 0.0077469624 -0.0079723485 0.007533229
0001c0 86 b8 a9 3c 37 22 be 3c 93 97 0b 3d b6 cf 9a bc
       0.02071787 0.023209674 0.0340801 -0.018897872
0001d0 2e 26 36 bc c0 e8 e5 3b df 92 40 bc 93 fc ae bc
       -0.011117501 0.0070162714 -0.011753767 -0.021360671
0001e0 ab cc 7a bb fa bc c4 bc eb 4b a2 3c db 2b 2a 3d
       -0.0038268964 -0.024015892 0.019811591 0.04154573
0001f0 cf 11 b9 38 74 35 1e ba 01 14 cd 3c ed 35 30 bc
       8.8248045e-05 -0.0006035187 0.025033953 -0.010755044
000200 1d 3b 9b 3c 24 e7 45 3c b4 39 e2 3b 4e c2 dd bc
       0.018949086 0.012079034 0.0069038514 -0.02707019
000210 70 7e 81 bc 51 2c 23 ba 69 18 51 bc bb de 1b bc
       -0.01580736 -0.000622456 -0.0127621675 -0.009513552
000220 7d 47 89 3c 6f 65 9d 3a d3 3e 61 bd e7 11 35 bd
       0.016757721 0.0012008379 -0.054991554 -0.044206526
000230 48 33 8e 3b ae 8b 4d bd dc 8b b4 bb cc 63 12 bd
       0.0043396093 -0.050182037 -0.0055098366 -0.035739705
000240 5c 10 c3 bc f7 63 c9 3c 06 11 a5 3c 1c 3a 86 bc
       -0.023811512 0.0245838 0.020149719 -0.01638513
000250 4b 9f 5b bd fe 85 17 3d f8 9a b9 3c b7 80 39 3c
       -0.05361871 0.03699302 0.022656903 0.011322192
000260 e0 5d b6 bc 6c b9 52 b9 7c 9d 6e 3c 82 fe d0 3a
       -0.02226156 -0.00020096236 0.014563914 0.001594499
000270 9b 98 00 bd 39 62 8b 3b 80 a7 ef 3b 93 23 02 bb
       -0.031395536 0.0042536524 0.0073136687 -0.001985763
000280 8a f3 12 bd 45 fd 69 3c 48 a2 c5 bb 5e 5d 10 3d
       -0.03587679 0.014281576 -0.0060313083 0.035245292
000290 3a 02 0f bd e7 f9 1d 3d 64 77 9e 3c 85 98 cb 3c
       -0.034914233 0.038568404 0.01934404 0.024853
0002a0 6f f1 8b 3c bc a6 f4 bc 74 90 a3 3c 98 8c 13 3b
       0.017082898 -0.029864661 0.019966342 0.002251422
0002b0 b5 45 96 3a e4 23 00 3d e0 c0 0f bd f1 c6 c5 3c
       0.0011464866 0.031284228 -0.03509605 0.024142714
0002c0 66 d3 a1 3c a9 fd 28 3c 01 57 36 3c 39 f7 11 3c
       0.019754123 0.010314384 0.011129142 0.00890904
0002d0 d6 50 47 bc d4 01 a6 bc 1d 93 70 3a 27 2f db 3c
       -0.012165269 -0.020264544 0.0009177195 0.026755882
0002e0 2f 98 ff 3b 4b 7b e1 39 d9 6a e5 3c 11 8f 6d 3c
       0.007800124 0.00043007205 0.02800505 0.014499442
0002f0 36 61 6d 3c 47 71 0d 3c 9d 23 d9 bc 5e 61 94 bd
       0.014488509 0.008632964 -0.02650624 -0.07245134
000300 59 b7 f3 bc 95 94 90 bd 44 a0 14 3c cd 4b 81 39
       -0.029750513 -0.0705959 0.009071413 0.00024661273
000310 41 99 47 bc 74 e6 c6 bb 52 f3 dc 3c ac 91 91 bc
       -0.012182535 -0.0060699526 0.026971493 -0.017769657
000320 54 2b 44 bc bd eb 4e ba b8 54 11 3b 1b 28 00 3c
       -0.011973221 -0.0007893404 0.002217574 0.007822062
000330 9c bd 8f bd 48 33 20 bc 6e e1 48 3b 00 eb a3 bb
       -0.07018587 -0.009777851 0.0030651945 -0.0050023794
000340 ab 63 3e 3c ae b9 f9 bc 22 81 84 bc 25 ec 8d 3c
       0.011620442 -0.030484047 -0.016174857 0.017324517
000350 47 4d f6 3b 95 b2 2a ba dc c0 d2 bc e8 9c 9b ba
       0.0075165364 -0.0006511596 -0.025726728 -0.0011872323
000360 27 73 98 3a 98 6b 0b 3c 7c 74 98 3c 18 8d 43 b9
       0.0011630998 0.008509539 0.018610232 -0.0001864921
000370 4c 07 14 3c 59 c2 27 3d 4c 8c c9 3c 32 7a 35 3c
       0.009034943 0.04095683 0.024603032 0.011076497
000380 1e ca a0 bd cc 37 d6 3c 59 4b 8d bd c8 66 e7 3b
       -0.07851051 0.026149653 -0.06899137 0.007061813
000390 85 7b 21 3c da dc 9b bd 90 f6 8a 3b bb c2 c9 3c
       0.0098561095 -0.076104835 0.0042408183 0.024628988
0003a0 74 60 39 bc e9 67 e8 bc 10 fc 5f bb 4f b4 9b 3c
       -0.0113145 -0.02836986 -0.003417734 0.019006876
0003b0 52 5a cd 3c fb d5 59 bd 0e bd 90 3c c0 a9 06 3d
       0.025067482 -0.053182583 0.017668273 0.03287673
0003c0 53 84 bb 3c 72 86 09 3d 05 3d b9 3c f5 1d 51 bd
       0.022890246 0.033575483 0.022612104 -0.05105396
0003d0 27 ba 2f bd fa e1 c6 3c bb a9 43 39 d3 db a5 3c
       -0.042902138 0.024277676 0.00018659879 0.020246422
0003e0 89 e9 80 39 98 96 f0 bc 42 f7 07 3c a7 e3 b5 3c
       0.0002458806 -0.029368684 0.008298697 0.02220328
0003f0 71 f9 b1 3c 53 b8 0b bc 2b ce ec bc 3c a5 a9 bc
       0.021725388 -0.008527833 -0.028906902 -0.020708673
