Reranking/data/checkpoints/prime/best.pth (torch, 804633 bytes, 6 tensors)

score_vec_enc.weight f4 [256, 4]
000000 aa 1c c8 3e c9 62 d8 3e c4 9b d3 bd 61 e8 f0 3e
       0.3908437 0.42262867 -0.10332444 0.4705229
000010 cb d0 bf bd 9e 39 e7 3d 10 24 67 be e6 43 9f 3e
       -0.09365996 0.112902865 -0.2257235 0.3110649
000020 ce 72 e6 3e 17 25 b6 be 5c 16 e5 3e 3f 76 dc 3d
       0.45009464 -0.35575172 0.4474362 0.10764741
000030 fc de b9 3e 10 0a 84 3d 8b b5 6e 3e cc f7 9f bd
       0.36302936 0.06447232 0.2331144 -0.078109354
000040 a5 eb c1 3e 71 ec 8a 3d 5a 49 77 be e8 25 f4 3d
       0.37875095 0.06783379 -0.24149075 0.119212925
000050 6c 95 72 be 1a 4d 83 bd cc e9 58 be 4b 11 a6 3e
       -0.23689812 -0.0641119 -0.21182936 0.32435068
000060 39 23 c7 be 37 6d 63 be 29 04 0c be 1a 15 9c be
       -0.3889406 -0.22209631 -0.13673462 -0.3048485
000070 d0 7d 7a 3d 65 9c f5 be 17 be e9 3e f2 64 da be
       0.06115514 -0.47970882 0.4565284 -0.4265514
000080 94 c4 c6 3e 93 d4 ab 3d 3a 26 1f be 27 7e a0 3e
       0.38821852 0.08390155 -0.15541926 0.31346247
000090 42 b4 a3 3d 6e 7f d1 3e ec f3 79 3d 8e a1 19 be
       0.07993366 0.40917534 0.061023638 -0.15003034
0000a0 a9 71 09 3e 3b 03 0c be fa 2e 5d 3e 64 21 e5 3e
       0.13422264 -0.13673107 0.21599951 0.44752038
0000b0 f9 3d 99 3e 30 1d 54 be 71 45 9c 3e 9a 8e d4 3d
       0.29930094 -0.20714259 0.3052173 0.103787616
0000c0 aa 39 7e 3e b4 dc 9b be 32 cf f8 be f0 1d 4f be
       0.24826685 -0.3044182 -0.48595577 -0.20226264
0000d0 66 14 c7 be c1 3a cf 3e 52 4b 08 3e a0 56 4c 3e
       -0.3888275 0.40474513 0.13309982 0.1995492
0000e0 96 cf 22 3e 6e c9 44 bc 2f 99 c6 3e 76 0f b4 be
       0.158995 -0.012010915 0.38788745 -0.35168046
0000f0 d4 9b 3a 3d 00 36 a7 be 2b b4 23 3e 79 ff 31 be
       0.045558766 -0.32658386 0.15986697 -0.17382611
000100 70 87 1b 3e d9 75 c8 bd 97 49 d6 3e 36 d0 9b be
       0.15188384 -0.09788103 0.4185302 -0.3043229
000110 61 54 93 be 69 d5 92 be 45 58 ef 3e 48 b9 39 3e
       -0.28775313 -0.28678444 0.46747032 0.18137085
000120 bf 2d f9 3e 20 1c d4 be 31 1f 00 bf 4d 93 c3 be
       0.48667714 -0.41427708 -0.50047594 -0.3819832
000130 1f 41 a7 be d0 40 57 3e d7 a1 46 3e ed 74 da 3e
       -0.3266687 0.21020818 0.19397675 0.42667332
000140 d1 41 81 be 22 66 ab be b5 14 8a 3e 69 48 52 be
       -0.25245526 -0.3347636 0.26968923 -0.20535435
000150 96 c9 99 3e 29 ad e3 bd 05 1e 95 3e 8a f8 ca be
       0.3003661 -0.11117012 0.29124466 -0.39642745
000160 19 cc 81 be 19 29 21 3e d0 93 d9 3d 81 88 fb bd
       -0.25351027 0.15738334 0.10623896 -0.122818954
000170 d8 8d 95 3e 1a 0e b2 3e 35 2e b4 be 62 76 89 be
       0.2920978 0.34776384 -0.35191503 -0.2684813
000180 aa 52 ea 3e 6a 57 24 be 15 8c 36 be 18 42 fa be
       0.45766193 -0.16048971 -0.17826875 -0.4887855
000190 6a 80 95 be 3d a4 ef 3d 48 5c 8f bd 4d ef b7 be
       -0.29199535 0.11701248 -0.07000023 -0.3592476
0001a0 32 44 d9 3c c8 25 a7 be 7b 02 d7 be 15 a2 8e be
       0.026521776 -0.32646012 -0.4199408 -0.27858034
0001b0 ca ca d9 be f5 b7 9d be 0f be 03 3f 8d 29 dd 3d
       -0.42537528 -0.3080441 0.5146188 0.10798941
0001c0 2a 19 1a 3e 30 53 ee be 9a ff a3 be 9c 74 32 be
       0.15048662 -0.46547842 -0.32030946 -0.17427295
0001d0 28 2a 96 3d 40 b3 e6 be 9d 25 60 be fb 87 97 be
       0.073322594 -0.45058632 -0.21889348 -0.29595932
0001e0 c6 ca 0e bc d8 0a 48 be 78 06 1e bd 27 8c ab be
       -0.008715337 -0.19535387 -0.038580388 -0.33505365
0001f0 63 2f ac be 4d df 90 be 75 99 2a be 4d 4c cc be
       -0.33629903 -0.28295365 -0.16660102 -0.39901963
000200 7c 7c de 3e 55 9c aa bd 1c 6e e7 3e 95 b0 34 3e
       0.4345435 -0.08330599 0.45201194 0.17645486
000210 5b f7 d8 be 22 96 b6 3e c9 5a 01 be 0c d6 3b be
       -0.42376217 0.35661417 -0.12632288 -0.18343371
000220 80 7f d4 be 79 81 fe be e2 88 0e 3e 04 c8 d8 bd
       -0.41503525 -0.49708155 0.13919404 -0.10585025
000230 5a 08 46 3e f9 a0 ce be a5 e4 c0 3e d4 4c bf be
       0.19339123 -0.40357187 0.37674442 -0.37363303
000240 0c 80 c1 bd f1 d0 c9 3d cf 6b 7c 3e 29 73 ca 3e
       -0.09448251 0.098543055 0.246505 0.39540985
000250 dc c0 e5 3e c0 44 cc be f4 ae 05 3e ae 86 64 be
       0.44873703 -0.39896202 0.1305502 -0.22317001
000260 b9 f7 80 bd e2 7d c2 be ba 30 e7 3e 55 ca bc be
       -0.06297249 -0.37986666 0.45154363 -0.36873117
000270 e7 17 86 3e b0 ec 40 3e 95 26 2e 3e d4 30 8a be
       0.2619011 0.18840289 0.17006905 -0.26990378
000280 46 55 ea 3e 66 85 d5 3d 8b 56 78 3d 6c 24 df be
       0.45768183 0.10425834 0.06062941 -0.43582475
000290 70 c0 66 3e 42 71 75 bd 7d 2e 55 be a3 45 e6 3e
       0.22534347 -0.059922464 -0.20818515 0.44975004
0002a0 b5 a8 f9 3d 3d 13 8a be 1c fc 87 be 93 8b 20 bc
       0.121903814 -0.26967803 -0.26559532 -0.009798902
0002b0 c1 a9 92 3e 71 67 01 be b9 01 95 be 5e 71 25 be
       0.28645137 -0.12637116 -0.29102877 -0.16156527
0002c0 29 b6 bb be 05 9a 3e 3e 36 18 c9 3e c0 1d ef be
       -0.36662415 0.18613441 0.39276284 -0.46702385
0002d0 c2 db e5 3d 0c 5a 8a 3e f4 44 e3 3d f8 53 32 be
       0.11223556 0.27021825 0.11097136 -0.17414844
0002e0 06 30 8a 3e f2 92 8a 3e f7 85 50 3e fe e6 98 bd
       0.26989764 0.27065235 0.20363604 -0.07465933
0002f0 8d 31 ff bd 96 45 85 3d 22 9a aa bd 50 83 1b be
       -0.12460623 0.06507413 -0.0833018 -0.1518681
000300 91 44 a1 3e c6 ac d9 3e 8b 89 5e bd dc d1 f0 bd
       0.31497625 0.42514628 -0.05433039 -0.117587775
000310 21 94 8b 3c 5f b5 ad bc 43 ff 0b 3e a9 80 1c 3e
       0.017038407 -0.021204649 0.13671593 0.15283455
000320 89 73 e9 be 02 d5 3f be d9 d1 d7 3e 29 43 45 3e
       -0.4559596 -0.187336 0.4215229 0.19263901
000330 8d 23 5f bc c3 be 94 be c2 55 9a be ad b0 e7 be
       -0.013619316 -0.2905179 -0.30143553 -0.4525198
000340 69 4b 2e be 0a ba 26 3e 75 de 9c 3e d1 c6 63 3e
       -0.17020954 0.16281906 0.3063847 0.22243811
000350 c3 49 dd be 16 d2 95 be ae 45 85 bd 5e 63 fd 3e
       -0.43220338 -0.29261845 -0.06507431 0.49489874
000360 59 bc 92 3d fc 40 09 be 55 0b 50 3e d8 a3 3e be
       0.07164831 -0.13403696 0.20316823 -0.18617189
000370 72 73 a4 be 2d 55 b8 3e 71 cb 6d be 03 e0 db bd
       -0.32119328 0.36002484 -0.23222138 -0.10736086
000380 cc bb 00 bf 0b a6 a8 3e 56 8e bc 3e 96 68 33 3e
       -0.50286555 0.3293918 0.36827344 0.17520365
000390 a0 07 b5 be f0 7e ff be de 05 d4 be 00 cf bb 3e
       -0.3535738 -0.49901533 -0.41410726 0.36681366
0003a0 d7 af 6e 3e f3 37 d4 3e 55 f5 7e 3e 1c f6 f0 3d
       0.23309265 0.41448936 0.24898274 0.11765692
0003b0 e2 c4 df 3b 75 a4 bc be 5f 53 da be a4 fd f0 be
       0.00682889 -0.3684422 -0.42641732 -0.47068512
0003c0 7e f0 53 3e 20 e6 7d be cc 5b d5 bd 2e 10 91 be
       0.20697209 -0.24794817 -0.104178995 -0.28332657
0003d0 74 d6 c8 bd bf c4 b7 be b5 32 a9 be 4c 8b 21 3e
       -0.09806529 -0.35892293 -0.330465 0.15775794
0003e0 91 a2 19 be 98 3f 9e 3e 93 cc 26 be 43 59 ba be
       -0.1500342 0.30907893 -0.16288976 -0.36396226
0003f0 1f 0e a1 bd 27 47 6d be 5f ad 17 be bd 28 f6 be
       -0.078640215 -0.23171674 -0.1481223 -0.48077956

score_vec_enc.bias f4 [256]
000000 f3 08 91 3e bd 28 89 bd 75 5e 59 3e 6e 87 93 be
       0.2832714 -0.06697223 0.21227439 -0.28814262
000010 49 9e 92 3d fd 46 9d be d8 47 82 3e 1b 5e 5a be
       0.07159097 -0.30718222 0.25445437 -0.21324961
000020 34 08 02 be 1d dc df be a0 b4 06 ba f5 66 f9 3e
       -0.12698442 -0.4372262 -0.00051386096 0.48711362
000030 7d 24 7a 3e c9 84 8a be ec bd 38 3b 68 a9 47 bd
       0.24427982 -0.27054432 0.0028189374 -0.048745543
000040 23 4e cb be 22 29 ce 3e 8f ff eb 3a 07 95 e5 3d
       -0.3970805 0.40265757 0.001800524 0.11210065
000050 35 83 49 be 88 2d 69 be 3b 49 a6 3d 9c a8 4b 3e
       -0.19678958 -0.22771275 0.08119436 0.19888538
000060 17 15 ea 3d 96 23 7b be 52 de fc 3e cd 2b 92 bd
       0.11429804 -0.24525294 0.49388367 -0.071372606
000070 81 1e 9a be 55 9f 74 be 3d e3 f9 3e a8 95 98 3b
       -0.30101398 -0.23888905 0.48806182 0.0046565123
000080 64 be 53 bd ec b0 47 be c9 c7 0a be eb 83 d4 be
       -0.051695243 -0.19501084 -0.13552774 -0.41506895
000090 59 37 ce be 5d 77 98 3e 5d cb d8 3e e3 8a f8 3e
       -0.40276602 0.29778567 0.42342654 0.48543462
0000a0 9f 07 bb be 45 49 8f 3e 4f 09 9b be 60 38 98 3e
       -0.36529252 0.27985588 -0.3028054 0.2973051
0000b0 4c 91 bb 3e 12 c8 d2 3e 5a 45 b6 3e fc 48 a3 3e
       0.3663429 0.41168267 0.35599786 0.3189162
0000c0 86 89 db 3b d4 b2 70 3e 01 7a 33 be b5 00 64 3e
       0.0066997437 0.23505718 -0.1752701 0.22265895
0000d0 bd be 2b be c7 67 80 ba 9c e7 e0 be 8b 2f 08 be
       -0.1677198 -0.0009796553 -0.43926704 -0.13299386
0000e0 72 b4 85 be 06 60 32 be dd 0b a5 be 9a 66 e4 be
       -0.2611423 -0.17419443 -0.32235613 -0.4460953
0000f0 66 1f e8 3c c2 d3 a2 3e cf f1 e7 3e 09 fd 97 3e
       0.028335284 0.31802183 0.45301673 0.29685238
000100 ca eb 77 be 6f 6a fa be ff 54 48 3e 53 f9 91 3e
       -0.2421104 -0.48909327 0.19563673 0.28510532
000110 b8 a2 dd be 58 cb 3c 3e 06 c8 d8 3e 8b 14 1b 3d
       -0.43288207 0.18436944 0.42340106 0.03786139
000120 29 8e 9c be d3 73 d4 3e d4 ce 57 3e 33 40 ad 3e
       -0.3057721 0.41494617 0.21074992 0.33838043
000130 a5 83 ad be d6 b2 99 3e 18 40 ae be c4 2f fb 3e
       -0.338895 0.30019253 -0.34033275 0.4905988
000140 c6 db 59 be be 48 98 3e 28 7f cb 3d b9 c7 0c 3e
       -0.21275243 0.29742998 0.099363625 0.13748063
000150 97 50 a2 bd ac 09 4f 3e 48 e2 59 be 5b d0 ed be
       -0.079255275 0.20218533 -0.21277726 -0.46448025
000160 90 25 3e be 01 e0 c7 3e d3 55 07 be e4 30 1b 3e
       -0.18569016 0.3903809 -0.13216333 0.15155369
000170 fe 6b 3b be 1b 2d c2 3e f7 3d 96 3e 09 5c 3c 3e
       -0.18302915 0.37925038 0.2934415 0.18394484
000180 ad 88 7a be c1 9f ce be b6 8c e1 3c 3e 2b 98 be
       -0.244662 -0.40356258 0.027532917 -0.2972049
000190 85 ff d4 3e 79 50 f7 be 46 a2 5f 3e b3 f2 fb 3e
       0.41601196 -0.48303583 0.21839246 0.49208602
0001a0 d0 01 84 3e f9 2f 36 3e 7a fe f2 be cb 5d fa 3e
       0.25782633 0.17791738 -0.47459775 0.48899683
0001b0 46 bc 9c bd c4 4d f2 be d8 14 00 3f 09 67 49 be
       -0.07653098 -0.47324955 0.50031805 -0.19668211
0001c0 b1 ff e5 bc c4 db ea 3e a1 a7 b6 be 29 63 b7 be
       -0.028076025 0.45870793 -0.35674766 -0.3581784
0001d0 c2 8f b9 3d f0 24 82 bd 36 3a e2 3d 03 ca d5 be
       0.09060623 -0.063547015 0.11046259 -0.41755685
0001e0 53 ba f0 3c 34 81 5e be 18 95 7f be c1 70 ec be
       0.029385721 -0.21728975 -0.24959219 -0.46179774
0001f0 65 f2 82 3e 25 fc e3 3d a7 4b dd be 1c 80 c9 3e
       0.25575557 0.11132077 -0.4322178 0.39355552
000200 51 0f 29 3e b0 57 b2 3d a1 46 93 be 38 ef 9c 3d
       0.16509749 0.08708131 -0.28764823 0.07662815
000210 3f e4 fb 3e 30 e4 b1 3e 73 e5 c3 be 9c 00 e7 3e
       0.49197575 0.34744406 -0.38260993 0.45117652
000220 48 fc 30 3d 06 7e 72 3e ef 01 c4 3e fd 48 d8 3e
       0.043209344 0.23680887 0.38282725 0.42243186
000230 90 44 c0 be 20 04 e2 3e 60 cd ab be 76 b4 39 3d
       -0.3755231 0.44143772 -0.33555126 0.045338117
000240 12 27 ab be d2 2c e8 bd fe 2e 8e bc be 5b 61 bd
       -0.33428246 -0.11336674 -0.017356392 -0.055019133
000250 c0 b4 a9 bd 0b 6f 14 3d 60 4c f7 3e a7 64 93 3e
       -0.082864285 0.03623871 0.48300457 0.2878773
000260 14 04 96 3e ac 4c 49 3e d1 23 c3 3e 8a 9b ce bc
       0.29299986 0.19658154 0.38113263 -0.025220651
000270 fa 03 48 3d 00 0c e5 3d f7 b9 e2 be 42 be cd be
       0.048831917 0.111839294 -0.44282505 -0.40184218
000280 98 f1 9e 3d fc 13 43 be b3 48 8a bb a3 c6 f2 bd
       0.07760924 -0.19050592 -0.004220092 -0.11854293
000290 30 ae af 3d 63 df a9 3e a7 23 24 be 60 0a d5 3e
       0.085781455 0.33178243 -0.16029225 0.41609478
0002a0 bf fa c7 3e ae cd c3 be 46 f4 c2 be c4 28 d0 be
       0.39058492 -0.3824286 -0.3807699 -0.40656102
0002b0 05 34 8f be 49 cc 41 be a8 7e 2b bd 27 e5 ea bd
       -0.27969375 -0.18925585 -0.041868836 -0.114694886
0002c0 74 44 81 be b0 cd 1c be e1 e7 43 be 91 7e fd 3e
       -0.25247538 -0.15312839 -0.19131424 0.49510625
0002d0 ad c2 36 be b1 ee b3 be f5 40 50 3e d6 19 9c bc
       -0.178477 -0.35143045 0.20337279 -0.019055288
0002e0 6c 7d c0 3e 3d 0f 9e 3e 17 f3 ed 3e 7f 58 bd be
       0.3759569 0.30871 0.46474525 -0.3698158
0002f0 59 40 a8 3e 9e be d4 3e 79 6b 80 be 73 dc ee 3e
       0.32861593 0.4155168 -0.25081995 0.46652564
000300 ed 96 bf 3e 17 8c 1b 3b a4 51 71 3e de 4a 29 be
       0.37419835 0.0023734623 0.235663 -0.16532466
000310 3c 2f dd be 49 26 fb 3d 23 03 15 3e 21 05 aa be
       -0.432001 0.12263162 0.14551978 -0.33207038
000320 76 9d 73 3e e9 05 df be b1 f4 db 3e 89 13 fe 3e
       0.23790535 -0.43559197 0.42960122 0.4962428
000330 66 05 12 3e 8d 70 99 be 4f 55 76 3e bd e2 a3 3d
       0.14259872 -0.29968682 0.2405598 0.08002231
000340 ae 77 08 3e 85 d3 23 3e 58 c3 c6 3e c3 24 57 be
       0.13326904 0.15998657 0.3882091 -0.21010117
000350 45 b5 f9 bd f2 48 13 3e e0 ec 6f 3d 45 d1 d1 3e
       -0.121927775 0.14383295 0.05857551 0.40979972
000360 7b f1 86 be e8 d9 27 bc 10 2d b2 3d ea 8f 0e be
       -0.2635611 -0.010244824 0.08700001 -0.13922086
000370 65 6d ad 3e fc 65 5d 3d bf 49 e9 be 7c d3 30 bd
       0.33872524 0.054052338 -0.45564076 -0.043170437
000380 50 29 64 be ad 01 47 3d d5 ff 80 bd fb 03 fa be
       -0.22281384 0.048585583 -0.06298796 -0.48831162
000390 ca a5 cb bd fe dd 07 bd d2 25 1c be 79 cd e8 3e
       -0.09943731 -0.033170693 -0.15248802 0.45469263
0003a0 b4 e2 e8 bd 9a bf a6 3e b2 c3 09 3e f0 88 d6 be
       -0.11371365 0.32568055 0.13453558 -0.4190135
0003b0 b0 00 e8 3d 3f ce da 3e 9e 7c a3 be 9b 06 a4 be
       0.11328256 0.42735478 -0.31931013 -0.3203629
0003c0 cf c9 00 3f 89 04 cf 3e f0 00 92 be 08 42 97 3e
       0.50307935 0.40433148 -0.2851634 0.29542565
0003d0 78 59 66 bd 48 b2 fe be 6c 5b 3d 3d da bd 20 3e
       -0.056237668 -0.49745393 0.046229765 0.15697423
0003e0 cd 7b 1d be e3 d9 2d 3e 78 2a de be 5f ac b3 3e
       -0.15379258 0.16977648 -0.43391776 0.35092446
0003f0 4d dc dd 3e 83 9c 8a 3e 67 6b be 3d fe 8a 2c 3e
       0.4333214 0.27072534 0.09297829 0.16849896

text_emb_enc.weight f4 [256, 768]
000000 6d 81 de bc 29 73 96 bc 8c b3 6b bc e0 cc 00 bd
       -0.027161324 -0.01836546 -0.014386069 -0.031445384
000010 c7 62 7a bc f6 34 8f 3c fc 1a 07 3d 4b ec 11 bd
       -0.015282339 0.017481308 0.03298472 -0.035625737
000020 59 6e 82 3c 51 bd fb 3b d6 94 18 3d ab 54 04 3d
       0.015921758 0.0076824804 0.037251316 0.03230731
000030 86 b3 0a 3d dc 52 91 bc c9 25 e1 3c ed c4 f2 3c
       0.033862613 -0.017739706 0.027483838 0.029634917
000040 2a 6b 1b bd 73 9c 95 bc ff 10 5e 3c 6e 51 08 3d
       -0.037943996 -0.018263077 0.013553857 0.033280782
000050 da 07 c8 bc f1 24 56 bb b4 61 5f 3c 3f 52 93 3c
       -0.024417806 -0.0032675827 0.013634134 0.017983554
000060 d7 71 82 bc a6 e3 0d 3d f5 df 37 3c cd 79 4e bc
       -0.015923424 0.03464093 0.011222829 -0.012602282
000070 4c 34 5f bc d9 0e 13 bc 25 fb 3d 3b 1d 7c dc 3c
       -0.013623308 -0.008975708 0.0028988805 0.02691465
000080 e1 48 9a 3c a1 72 00 bb ed e9 b1 3c 26 df e9 bc
       0.01883358 -0.0019599574 0.02171799 -0.028548788
000090 22 d6 b6 bc a5 68 fa bb fc ea 10 bd 68 61 20 3b
       -0.022318903 -0.007641869 -0.03538035 0.002447212
0000a0 03 22 d6 bc 95 89 b2 bb 2d 20 99 ba 4d 14 1d 3c
       -0.026139265 -0.00544853 -0.0011682563 0.00958736
0000b0 06 76 af bc bd cc f7 bc 6e ee 69 3b fa 8f 29 3d
       -0.021418583 -0.030248994 0.0035695094 0.041397072
0000c0 c4 a1 2f bd f3 97 d3 3c 14 84 be bc d1 9f b6 bb
       -0.04287888 0.025829291 -0.02325634 -0.005573251
0000d0 77 21 13 3d cd 08 01 3d 2f b0 73 bc 77 81 e3 3c
       0.035920586 0.031502534 -0.014873548 0.027771695
0000e0 24 dc 88 3c a7 97 be 3b a1 12 2b 3d 45 9e 85 bc
       0.016706534 0.005816418 0.041765813 -0.01631082
0000f0 71 89 05 3b 22 b3 91 bc 32 f7 65 3c 14 63 f6 3b
       0.002037611 -0.017785612 0.014035987 0.0075191353
000100 99 56 44 3c 22 94 7a bc c1 38 70 bc 58 f5 3c 3c
       0.011983537 -0.015294107 -0.014661969 0.011533104
000110 0f 77 17 bd a7 3d 6d 39 1d ed 91 3a b1 75 fb bb
       -0.036978777 0.00022625049 0.0011133287 -0.007673942
000120 d9 04 b6 3c 5d e8 43 3c a7 a9 13 3d c7 3f 03 ba
       0.022219108 0.011957255 0.036050465 -0.0005006757
000130 d7 be ef bc 15 99 b9 3c f5 d2 2e bb f2 c2 60 bc
       -0.029265804 0.022656003 -0.0026676033 -0.013718354
000140 ee c3 f3 bc f6 36 12 3c b9 7c 33 bd ab 9e 82 3c
       -0.029756512 0.0089242365 -0.043820117 0.0159448
000150 5e a7 22 3c a9 10 ad bc f3 d4 ae bc 77 1d a0 bc
       0.009927599 -0.021126108 -0.021341776 -0.0195453
000160 fb e0 8e 3c e1 36 38 3d f8 89 bb 3b e1 8a e8 3c
       0.017441263 0.04497421 0.0057232343 0.028386535
000170 ec 63 71 bc 32 a8 e2 bc ae 7c 2b 3c 05 cc 5f 3c
       -0.014733296 -0.027668092 0.010466738 0.013659482
000180 3d b2 d3 3c 52 a0 02 bc d0 89 e8 3c 71 4d 6c 3c
       0.025841827 -0.007972794 0.028386027 0.01442276
000190 b6 39 8d 3c ce cc 20 bd e8 4b ef 3c c1 44 bf bc
       0.017239433 -0.039257817 0.029211 -0.023348214
0001a0 bc 02 d6 3c e5 d6 8a 3b 1e 7a 0c bd 01 ec 4e 3b
       0.02612435 0.004237043 -0.034296148 0.0031573775
0001b0 54 c0 80 bc 5c cc 18 bd b2 72 50 bc 2a 95 85 3b
       -0.01571671 -0.037304267 -0.012722658 0.0040766196
0001c0 d4 b9 11 3d 1e f3 02 bc 93 99 58 3c 95 bb 34 3c
       0.03557761 -0.007992534 0.013220209 0.011031051
0001d0 58 db 01 3c 54 ab 64 3c 06 a3 ab bc e0 fa 20 bd
       0.007925831 0.013956863 -0.02095176 -0.039301753
0001e0 29 d2 b7 bc 08 9b fc bc 84 f1 92 bc 71 6e ee 3b
       -0.02243908 -0.030835643 -0.01793743 0.0072763492
0001f0 d3 45 17 bc ea c5 77 bc d3 be 5f bc 13 de 80 bc
       -0.009232956 -0.01512287 -0.013656336 -0.015730893
000200 6b d2 3c bc 92 ce 11 39 e6 cb 4e bc 15 c1 84 3c
       -0.011524777 0.00013905231 -0.012621855 0.01620535
000210 09 26 c6 bb 3e 42 2e bc 4d c4 6d bc 05 fe bd bb
       -0.0060470146 -0.010635911 -0.014512134 -0.0057981038
000220 d1 d8 87 bc d9 b7 76 3c 8d 9c d2 3b cd 2a 14 3c
       -0.016582878 0.015058481 0.0064273537 0.009043408
000230 2d d7 23 3c 79 e6 c3 3c c5 bf 5f 3b 8f c4 15 bd
       0.010000032 0.023913609 0.0034141403 -0.036564406
000240 a8 94 58 3c 6d ca cb bc b3 a8 3f bc b6 44 80 bb
       0.013219036 -0.024876798 -0.011697936 -0.003914441
000250 71 ed a8 bb fe db b4 bc c4 1f 28 3d 02 f0 f0 3c
       -0.0051552583 -0.022077557 0.04104592 0.02941132
000260 96 9b 24 3a ba b0 06 3d 63 43 20 bd ef 89 a1 3b
       0.00062792876 0.032883383 -0.039126765 0.004929773
000270 83 ed a2 3c 06 96 00 3d 5e 3b 29 bd 1a 05 87 3c
       0.019888645 0.031393073 -0.041316383 0.016481925
000280 b9 9b 7b bc 9a e4 8c bb d8 48 0c ba 21 1d b6 bc
       -0.015356951 -0.0042997124 -0.0005351431 -0.022230687
000290 09 e8 2f bd 9f c9 bb bc 8d 0a c7 3c 95 2a 9e 3c
       -0.042945895 -0.022923289 0.024297023 0.019307414
0002a0 30 0d 18 bd 09 41 b6 bc a2 62 0b bc 8d 1f 3c bd
       -0.03712195 -0.022247808 -0.008507403 -0.045928527
0002b0 6d ab e2 3c 38 53 2e 3d a0 ee 4d 39 52 a8 da bc
       0.027669633 0.042559832 0.00019639218 -0.02669159
0002c0 dd 4a b0 3b 03 91 49 3c c1 31 ff 3c e3 ba e2 bc
       0.005380018 0.01230264 0.031151654 -0.027677005
0002d0 52 d4 1b bd d8 7e 7b 3c 00 47 4d 3c c9 05 a7 bc
       -0.03804428 0.015350066 0.012529135 -0.0203885
0002e0 4e 18 3e bc af 78 84 bc 6f 79 01 3d d1 6d 20 ba
       -0.011602474 -0.016170828 0.03160995 -0.00061198795
0002f0 d6 74 15 3d 5b 25 f8 3c c6 41 40 3c f9 0b 7e 3b
       0.036488377 0.03029125 0.011734432 0.003876446
000300 e8 e6 39 bb 2d 61 e4 3c 94 c3 f0 bc 6b 1e aa 3c
       -0.002836639 0.027878368 -0.029390134 0.020766458
000310 02 8d 93 3a 6e 80 f7 3b 7f f0 bb 3b 13 7d c1 bc
       0.0011257234 0.007553152 0.0057354565 -0.02361921
000320 62 7e 12 3a 5b 00 ca 3c 6a 88 6c bc a6 85 d5 bc
       0.00055882905 0.024658373 -0.0144368205 -0.026064705
000330 a7 00 1f bc a3 fd 08 bc 37 72 e7 3b a8 a8 9d 3c
       -0.009704745 -0.008361253 0.007063176 0.01924546
000340 57 57 96 3a f6 5e 01 3d 7e 76 c2 bc 30 39 79 bc
       0.0011470121 0.031584702 -0.023738142 -0.0152113885
000350 65 3e 77 bc ba 59 10 bd 08 39 81 bc 55 3a 28 bd
       -0.01509056 -0.03524182 -0.015774265 -0.041071255
000360 81 24 cf bc e2 80 ea 3a 14 e5 87 3c f4 f9 10 3d
       -0.025285961 0.0017891193 0.016588725 0.035394624
000370 08 03 12 3d 47 45 2f bc 3a 86 47 3c 04 f2 85 bc
       0.035647422 -0.010697669 0.012177998 -0.016350754
000380 33 30 f5 3b a1 2a d0 bc d8 27 d8 3c c4 4d d2 3b
       0.0074825524 -0.025410952 0.026386186 0.006417962
000390 96 02 ba 3c eb 2b 79 3a c9 06 25 bc 76 df 8e 3c
       0.022706311 0.00095051405 -0.0100724185 0.017440539
0003a0 d5 ce a9 3c 83 bf 8d 3c f3 b0 16 3a 5c d0 16 3d
       0.020728508 0.017303234 0.00057484134 0.0368198
0003b0 51 8c 96 3c 64 e6 c6 3c 91 29 a8 3c 5f 57 ba bb
       0.018377455 0.02427978 0.020527633 -0.005686685
0003c0 d4 d2 70 3c 3f a8 93 3c 61 af d5 3b e9 86 de 3c
       0.014698703 0.018024562 0.006521151 0.02716394
0003d0 21 3a b9 3b 0e 2a c3 bc 53 af 39 3b 32 dc 39 3b
       0.0056526815 -0.023823764 0.002833326 0.0028360006
0003e0 af 01 46 3b 6c 6b 9d bc 66 75 04 3d 5b 5c 3f 3c
       0.0030213406 -0.019216262 0.032338522 0.011679734
0003f0 a2 3c 7f bc d5 77 6f bb f8 f8 94 3b d0 ed f4 bc
       -0.015578421 -0.0036539931 0.004546281 -0.029898554

text_emb_enc.bias f4 [256]
000000 9a f3 cc bb 71 01 38 3b f0 8f 11 bc 84 67 8a bc
       -0.0062546255 0.002807703 -0.008884415 -0.016895063
000010 b5 aa 9e 3b 71 94 9f 3b c2 4d d7 bb 75 5e 74 3c
       0.004842127 0.0048699905 -0.0065705488 0.014915098
000020 68 3f cb bc 47 a4 4b 3c b5 e2 a7 3c 82 f0 fd 3c
       -0.024810508 0.0124293035 0.020493845 0.030998472
000030 c7 dc 06 bc 51 c5 00 bc 35 51 18 3d 45 6b 25 3d
       -0.008231348 -0.007859544 0.03718682 0.040385503
000040 eb c6 53 3c a0 2f 10 bd 68 b7 d7 bc ee bc 93 bc
       0.012925844 -0.03520167 -0.026332572 -0.018034425
000050 9d e0 43 bb 84 84 97 3c de 9a cb bc a8 5f 1a 3d
       -0.0029888519 0.018495806 -0.02485412 0.03768888
000060 59 c9 76 3b ca 3e f1 bc 05 5f 14 3d 1b 6f 4d 3c
       0.0037656634 -0.029448885 0.03622343 0.012538697
000070 8b b3 1c 3d 8d 3e b0 3b ed e7 01 bd d3 e2 9a bc
       0.038257163 0.0053785504 -0.031715322 -0.018906986
000080 07 46 0a 3c a8 c5 51 bb 5c 84 3d 3c e2 d6 dd 3c
       0.008439547 -0.0032008681 0.011567201 0.027080003
000090 8f 39 a7 bb 4d 1c 8e 3a b8 fd 63 3c 5f c8 d7 bc
       -0.005103297 0.0010842175 0.013915472 -0.026340662
0000a0 87 ff 33 3c 4d d9 0f 3d d8 64 c5 3c fb 95 1e bc
       0.010986215 0.035119344 0.024095938 -0.009679313
0000b0 c6 b6 30 3c e2 0d b8 3c 53 35 ca 3c a8 9b 19 3c
       0.010785764 0.022467557 0.02468363 0.00937549
0000c0 4a 8e d9 3c 00 35 0f bd 4d 46 7d 3c 37 a6 40 bc
       0.026557107 -0.034962654 0.015458656 -0.011758379
0000d0 5c 16 7a bc 0c 7f 7a bc ed e0 13 bc 13 d1 b4 bc
       -0.01526412 -0.015289079 -0.009025794 -0.02207235
0000e0 cd a5 ab bc 63 78 08 3d 5b 0f 97 3c 13 9c 95 3c
       -0.020953083 0.033317935 0.01843994 0.018262899
0000f0 25 16 01 3d e3 aa 23 3d d3 06 0f bd 8e 29 25 3d
       0.03151526 0.039957892 -0.034918617 0.040322833
000100 22 a4 0c 3d 27 3a aa 3c 5e 1d 80 bc 06 30 b3 bc
       0.034336217 0.020779682 -0.015639003 -0.021873485
000110 e1 7a a3 bb 1b ca 08 3d 0d 75 9d bc b9 59 fd 3c
       -0.0049890135 0.033395868 -0.019220853 0.030926572
000120 36 36 5f 3b 5e ff 64 3c 20 08 9f bc 45 2d a2 3c
       0.0034059412 0.0139769 -0.019413054 0.019796977
000130 56 7b cf bb cc 71 92 3a 8e 28 5a 3c e0 09 94 3c
       -0.0063318415 0.001117283 0.013315333 0.018071115
000140 2d ca c0 3b 2b 69 57 3c bd 02 a2 3c 27 c4 06 bc
       0.005883476 0.013147633 0.019776696 -0.008225477
000150 88 95 ef bc 90 21 3c 3c 59 f8 01 3d 09 7d 0e bc
       -0.029246107 0.011482611 0.031730983 -0.008696803
000160 03 03 fa 3b 12 32 de 3c 68 18 a7 bc cf 7a b9 bb
       0.0076297536 0.027123485 -0.02039738 -0.005660392
000170 8a 58 c8 3c bc 24 e3 bb e1 7e fe bc 27 9c 72 3c
       0.024456281 -0.0069318693 -0.03106636 0.014807737
000180 2d 5f a5 bc ce 8b 4a bc 52 34 a5 3c 87 30 2c 3d
       -0.020186985 -0.012362434 0.02016655 0.042038467
000190 86 2a 8b 3c 63 bf ad bc 5d b7 c3 bc f8 23 d7 3c
       0.01698805 -0.021209424 -0.023891145 0.026262268
0001a0 45 49 b0 bc 7c 01 fb bc b2 e4 d8 bb 2f e0 c5 3c
       -0.021519313 -0.030640356 -0.0066190595 0.02415475
0001b0 bf 44 61 3c 43 91 f0 3c 5f 1b 49 3c ce e3 c3 3c
       0.0137493005 0.029366141 0.012274592 0.023912337
0001c0 a6 3b 03 3d 80 25 e5 bb 85 34 58 3b 98 a3 9f bc
       0.032039307 -0.0069929957 0.0032990288 -0.019487187
0001d0 c6 6a d1 ba 8e 5a 12 3d bb a0 4e 3b 36 31 95 bc
       -0.0015977256 0.03573089 0.0031528908 -0.018211942
0001e0 66 d8 65 bc 25 b8 83 3b 10 2a c0 3c ab 48 02 3d
       -0.014028644 0.0040197545 0.023457557 0.031807583
0001f0 f0 8d 43 bc 34 02 96 3c 1e 96 c8 3c c7 bc 21 bc
       -0.011935696 0.018311597 0.024485644 -0.009871668
000200 99 73 dc 3b 8d 58 13 bd 16 f5 b7 3c dc a3 12 3d
       0.0067276475 -0.03597312 0.022455733 0.0358008
000210 d6 f9 f2 3c 22 98 d9 3c 1c bf d7 3c eb a9 2a 3c
       0.029660147 0.0265618 0.026336245 0.010416488
000220 a0 65 0b 3d 68 e1 86 3a c1 ca 0e 3d 29 b3 96 bc
       0.034032464 0.0010290565 0.03486133 -0.018395977
000230 88 fd ab 3c c4 00 93 3c e0 1b f0 bc f3 87 e4 3c
       0.020994917 0.017944701 -0.029310167 0.027896857
000240 2f d3 00 3d 1e 79 ea 3b 30 a7 f7 3b 74 8b d4 bc
       0.0314514 0.0071555516 0.007557772 -0.025945403
000250 51 a8 c1 3c da 71 68 bc 96 d2 19 3d b4 9f 8b 3c
       0.02363983 -0.014187301 0.037554346 0.017043926
000260 61 d8 fd bc 2d e4 55 3c b3 00 38 bc 63 37 df 3c
       -0.030986967 0.01305489 -0.011230635 0.02724809
000270 82 6b 80 bc 9e c0 ff 3c f1 dd 0d bd 8f 7b 77 3b
       -0.015676264 0.031219777 -0.034635488 0.0037762856
000280 56 95 0f 3d 82 d9 dc 3b 79 c1 8d 3c 03 87 07 bc
       0.035054527 0.006739796 0.017304169 -0.008271935
000290 85 37 80 3c 63 49 d8 39 f0 a5 a3 bc 32 67 b7 3c
       0.015651474 0.00041253408 -0.019976586 0.022388075
0002a0 fa a9 df bc e9 d4 fc 3b 7b 51 19 3d fc 90 75 ba
       -0.02730273 0.0077158106 0.03743122 -0.00093676127
0002b0 60 b7 e1 b9 35 d3 3c 3b 56 89 e5 3c 2d ce fb bc
       -0.0004305197 0.0028812413 0.028019588 -0.03073796
0002c0 6f ae 54 bc fe db b9 3c 32 41 32 3a 9c 3f fe 3c
       -0.012981041 0.022687908 0.0006799876 0.03103619
0002d0 35 f6 99 bc f4 9f 88 bc c2 91 a0 bc ab 12 45 bc
       -0.018794158 -0.016677834 -0.019600753 -0.012028377
0002e0 84 a8 0e bb 6c f4 15 3d b2 d2 3c 3a 99 3f 95 ba
       -0.0021767924 0.036610052 0.0007203027 -0.0011386751
0002f0 5e 54 61 3c 8f 47 bc bc 6a a2 c4 3c 80 e9 43 3c
       0.013753025 -0.02298334 0.024003226 0.011957526
000300 7e 29 92 bc 96 65 b3 bc 56 ee c1 3c b6 6a 95 bc
       -0.01784205 -0.021899026 0.023673218 -0.01823936
000310 33 e4 4e bc 37 60 f8 bc fb 02 d9 bc 7b 65 85 3c
       -0.012627649 -0.030319316 -0.026490679 0.016283741
000320 3e 33 8f 3c 2c 1e d8 3c 4d 59 1a 3d e4 6a ba 3c
       0.017480489 0.026381575 0.03768282 0.022756048
000330 83 72 22 3d 33 8f 4d bc 29 97 8e bc 04 4d d0 3b
       0.039659988 -0.012546348 -0.017406063 0.006356837
000340 3c 52 9e 3c d6 6c 0c 3c c0 95 46 bc 97 dd 4a 3c
       0.019326322 0.00857087 -0.012120664 0.012381933
000350 bd c8 c4 3b e0 18 05 3d ba 41 a6 bc 77 f1 59 3c
       0.006005375 0.032494426 -0.020295013 0.013302199
000360 92 76 e8 3b 9a 80 0d 3d f6 3b f2 bc b9 d2 c4 3c
       0.007094213 0.034546472 -0.029569607 0.024026262
000370 b9 b4 11 bd 23 5c e8 3c aa e0 aa 3c d2 0c 3f bc
       -0.03557274 0.028364247 0.020859081 -0.011660771
000380 8e f2 ef bc 9f 0e eb bc 05 dd 76 3c aa 4b 85 bc
       -0.029290464 -0.028693495 0.015067344 -0.016271431
000390 eb 08 ac 3b 0e 39 d9 3b f4 a7 44 3c 95 2a df 3c
       0.0052500865 0.006629116 0.012002934 0.027241984
0003a0 72 ca 0e bc d1 f9 98 bb cd dc 95 3b e6 19 46 bc
       -0.008715259 -0.0046684523 0.0045734406 -0.012091136
0003b0 07 04 9b 3c 30 e1 a1 3c d1 a0 54 bc 9c cd 84 bc
       0.018922819 0.019760698 -0.012977795 -0.016211323
0003c0 24 97 a7 3b 49 cd 8a bc 62 0d 6d bb 10 2e 27 bc
       0.005114453 -0.01694359 -0.0036171307 -0.010203853
0003d0 46 2e be 3c b2 1c fb 3a 04 4f 93 bc d7 31 9b 3c
       0.023215424 0.0019158332 -0.017982014 0.018944664
0003e0 96 62 84 3b c1 d3 02 bd e0 82 21 3d ef 52 b8 bc
       0.0040400727 -0.031940226 0.039431453 -0.022500483
0003f0 6c 06 e1 3a 23 75 e2 bc b1 be 01 bd 76 a6 99 bc
       0.0017168052 -0.027643746 -0.031675998 -0.018756133

symb_enc.weight f4 [3, 256]
000000 f4 b0 93 3f 88 3c df 3f 6e a8 c6 be e8 22 dd 3c
       1.1538377 1.7440348 -0.38800377 0.026994184
000010 12 f3 2f bf 9c d7 98 3e 0e b1 22 bf 4a 84 be be
       -0.6873027 0.29851997 -0.63551414 -0.37210304
000020 ce 34 1c c0 21 ae 8c bb 58 67 88 3f 0d ae 9c bf
       -2.440723 -0.0042932187 1.0656538 -1.2240616
000030 0f 2d 67 3f 12 a6 4a 3f da 82 a9 3e 19 2c bc bf
       0.9030313 0.79159653 0.33107644 -1.4700958
000040 48 ae 92 3f 72 2f 9d 3e ad 03 16 be e2 f9 82 be
       1.1459436 0.3070026 -0.1464984 -0.2558127
000050 e1 fe db bd e9 39 72 bf be 5f 9c 3f c3 39 53 bf
       -0.10741974 -0.94619614 1.2216718 -0.8251001
000060 c2 3d 93 3f 42 0d 40 3f 6a 91 20 be 77 f8 9b bf
       1.1503222 0.7502023 -0.15680471 -1.21852
000070 f1 86 d1 be e9 cb 07 3f b9 46 65 3f db 64 4b 3f
       -0.40923265 0.5304552 0.8956104 0.7945077
000080 08 5f 1c 3f ab 03 ca be 4c a1 cf bf 3d 6d e3 bd
       0.61082506 -0.39455923 -1.6221099 -0.1110482
000090 49 b8 72 bf c7 3c fe bf 51 4a db 3e ca 11 9a 3e
       -0.94812447 -1.9862298 0.42830136 0.30091697
0000a0 e8 66 c6 3f 90 3a a5 3f f1 21 ad bf ce 59 0c c0
       1.5500154 1.2908497 -1.3525983 -2.1929812
0000b0 ac bf d5 bf a1 c2 7f bf de ac af be dd 31 57 3f
       -1.6699119 -0.99906355 -0.34311575 0.8406046
0000c0 8b 40 20 3f 50 29 4a bf 61 c6 c3 3e 15 ba b8 bf
       0.62598485 -0.7896929 0.3823729 -1.4431788
0000d0 5c 93 88 be 3e dd 0a 3f a4 6e 7e 3f 81 67 58 3f
       -0.26674926 0.5424384 0.99387574 0.84532934
0000e0 19 9b 87 bf e8 ce 01 bf 80 4c 0c c0 8b b6 d3 bf
       -1.0594207 -0.5070634 -2.1921692 -1.6540083
0000f0 b3 e0 03 bf ba 33 f0 be 52 bd b6 bf 99 15 32 be
       -0.5151474 -0.46914464 -1.4276526 -0.17391051
000100 82 1f 5f bf 8d a3 0f 3f ed fe 49 bf ec 53 f3 3f
       -0.8715745 0.56108934 -0.7890461 1.9009986
000110 ef 83 76 bd 56 91 81 bf fe 96 63 bf b2 4d fa 3f
       -0.060184415 -1.0122478 -0.8890227 1.9554961
000120 fb 84 8e bf ad 79 17 bf b4 e9 65 bf 35 1d b1 3e
       -1.1134332 -0.5917004 -0.8980973 0.34592596
000130 4e f8 8c 3e 29 a3 8d bf 63 e0 a5 3f a9 08 22 bf
       0.2753319 -1.1065418 1.2959102 -0.63294464
000140 86 da cf bc be 3a 07 c0 74 56 e1 3f 67 22 89 bc
       -0.025372755 -2.1129603 1.7604508 -0.016740037
000150 01 63 11 bf 23 7d ab 3e 91 0f 44 bf 14 38 a3 bf
       -0.5679169 0.3349391 -0.7658625 -1.2751489
000160 42 25 6b 3f 0e c0 28 bf 1a ec 26 3e 70 cd 47 be
       0.91853726 -0.6591805 0.16301003 -0.19511962
000170 8d 68 57 3f c5 05 2f 3e 76 54 18 bf 58 3c 23 be
       0.84143907 0.17092045 -0.5950388 -0.15940988
000180 78 92 cc bd 30 4d cb be 67 a3 d6 3c c6 dd ab bf
       -0.09988874 -0.39707327 0.026200963 -1.3427055
000190 63 42 9a bf 62 c9 7d 3c 8a 5b 87 3f fc 97 b0 3d
       -1.205151 0.015489908 1.057481 0.08622739
0001a0 3c 60 4c bd fe 2e 57 3f 90 be 96 3e c0 a7 56 3f
       -0.049896464 0.8405608 0.29442263 0.83849716
0001b0 b8 ef 41 bd fe 6c 9e 3f ed 28 cd be 14 8b 8f b9
       -0.047347754 1.2377012 -0.40070286 -0.00027378707
0001c0 3c cb 8c bf c4 5c 76 be 47 80 eb be 0c 26 80 bf
       -1.0999522 -0.24058825 -0.45996305 -1.0011611
0001d0 56 1b f3 be bf 68 98 3f 90 33 1e 3f 58 ab ba 3f
       -0.47481793 1.1906966 0.6179743 1.458354
0001e0 1f 6f 3a bf 57 26 9c 3f a5 ed 99 3f e0 7e d2 be
       -0.7282581 1.21992 1.2025648 -0.41112423
0001f0 60 bf 01 3f df 83 93 3f 66 68 a3 be 64 b4 82 3d
       0.5068264 1.1524619 -0.31915587 0.06382063
000200 e2 e2 8b bf b1 74 cf be 1a 00 99 3e ad ee d9 3f
       -1.0928614 -0.40518716 0.2988289 1.7025963
000210 a9 e7 c2 be f0 87 00 3f ab 2e f5 bd 3a 71 2a 3e
       -0.38067368 0.50207424 -0.11971792 0.16644755
000220 a3 d4 62 bd 28 98 77 3e dc 65 d6 bf fc e9 0c be
       -0.055378567 0.24179137 -1.6749835 -0.13761133
000230 95 13 8a 3e b0 81 11 40 4f 44 0e bf 92 73 49 3f
       0.26968065 2.2735405 -0.5557298 0.7869197
000240 7d 34 11 bf a1 64 5c 3f 77 42 ec 3e 1c 33 42 3f
       -0.56720716 0.8609105 0.4614446 0.75859237
000250 bf e4 3e bf 0d 05 33 be 7b 11 b5 bf 20 61 21 bf
       -0.7456779 -0.17482395 -1.414596 -0.63038826
000260 fb 7e a0 3f 0b ef ed 3e 16 c2 de bf 4f ae bb 3f
       1.2538751 0.46471438 -1.740298 1.466257
000270 2e 90 7d 3f 55 b9 30 be 0f e6 71 3f f2 41 e0 3f
       0.99048126 -0.17258199 0.94491667 1.7520125
000280 b4 bf f9 bd 01 07 07 c0 e1 dc 7b be 5e 53 06 bf
       -0.121947676 -2.1098025 -0.24595977 -0.5247096
000290 6b 7e 55 3f d3 a2 68 3f ab 5c 81 3e 1e dd 1c 3f
       0.83396024 0.9087345 0.25266013 0.612749
0002a0 ab 34 f0 bd e8 a7 cd 3f ae e2 cc bf 8b 76 15 3f
       -0.117287956 1.6066866 -1.6006677 0.5838401
0002b0 ae 34 82 be bb 32 64 bf 45 e1 80 be 7c b9 b3 3f
       -0.25430816 -0.8913991 -0.25171867 1.404098
0002c0 64 76 ab be 41 81 05 c0 fa cf 75 bf 08 49 fb bf
       -0.33488762 -2.086014 -0.9602047 -1.9631662
0002d0 73 f2 a9 bf 3b 3f 2b 3e 9b 0e 20 c0 82 4d 05 3f
       -1.3277115 0.1672334 -2.5008914 0.5207139
0002e0 9f a2 dc 3e 5e 31 86 bf b3 7b 42 bf bb 6e a0 be
       0.4309282 -1.0483816 -0.7597 -0.3133448
0002f0 cc 6c 1d 3e 77 27 39 3d 4e 1d e3 3f ca 65 b5 3f
       0.15373534 0.045203652 1.7743318 1.4171689
000300 2b e1 49 3f 54 7a 23 3f ec 07 bb 3e 69 ba 22 3e
       0.78859204 0.6385853 0.3652948 0.15891422
000310 4c 99 f5 3e a6 a5 67 3f 11 5f b5 bf bd 7f 75 3e
       0.4796852 0.90487134 -1.4169637 0.2397451
000320 5f f8 db 3d 00 b9 4e bf bb f1 d6 be 01 5f 00 40
       0.107407324 -0.8075104 -0.419813 2.0057986
000330 70 22 93 3f e4 75 3a 3f 03 d6 61 bf 88 42 67 3e
       1.1494884 0.72836137 -0.8821718 0.22583973
000340 3c bc 10 40 1e 10 a5 3f df 32 ca bf 92 e6 0b be
       2.261489 1.2895544 -1.5796775 -0.13662174
000350 d1 55 96 bf f6 de 04 40 19 87 dd 3e d1 72 d3 bd
       -1.1744939 2.0761085 0.43267134 -0.10324634
000360 af bb ef 3e d8 ed 95 bf c0 76 55 bf 8e 28 8e 3e
       0.4682288 -1.1713209 -0.83384323 0.27765316
000370 43 b7 fc 3e 87 03 3f 3f 0a b2 84 3e 42 4f 60 3e
       0.49358568 0.7461476 0.25917083 0.21905234
000380 72 f5 45 bf 76 38 a7 be 4a f2 29 bf bf 94 db 3e
       -0.77327645 -0.32660264 -0.6638533 0.42886922
000390 fb 2f d4 3e 72 43 98 bf 73 07 ca be fe 25 99 3f
       0.41442856 -1.1895583 -0.39458808 1.1964719
0003a0 28 0b 9b bf f2 c2 39 3f d3 4e 97 3e 1e d9 ff be
       -1.211278 0.7256309 0.29552326 -0.49970335
0003b0 f9 5e 84 3f ac d6 97 3e c2 00 7b 3d 28 8a 68 3f
       1.0341483 0.2965597 0.06128002 0.9083581
0003c0 c7 06 88 3e 6a f9 f5 be 57 98 bf 3e bd 3f 59 bf
       0.2656767 -0.4804185 0.37420914 -0.8486288
0003d0 e8 2f db be 25 07 11 3f ab ad 00 3c 56 16 e1 3f
       -0.42809987 0.56651527 0.007853906 1.7584941
0003e0 eb fb 9b bf db b6 04 bf 3f 39 36 bf 8b d6 a3 bf
       -1.2186254 -0.51841515 -0.711811 -1.2799848
0003f0 03 10 9d b9 c6 1c e6 be a4 c4 bf 3f db 40 68 3d
       -0.00029957303 -0.44943827 1.4981885 0.056702476

fc1.weight f4 [1, 1280]
000000 e4 c5 2a bd 3c 42 14 bd 1b 34 94 bc 64 5c 86 3c
       -0.04169263 -0.03619598 -0.018091252 0.016401477
000010 26 e0 a7 bc 64 f9 0c 3d 45 9e 98 bc 84 f0 c1 bc
       -0.020492624 0.034417525 -0.018630156 -0.023674257
000020 3e f7 68 3c 76 63 67 bc f4 6d e7 3c ae 07 f5 bc
       0.014219103 -0.014122834 0.028250672 -0.029910889
000030 10 eb b5 3c a1 c2 d2 3c 94 08 37 bc f0 2e 55 bc
       0.022206813 0.025727572 -0.011171479 -0.013011679
000040 7c 82 d0 bc ce 8c 50 ba fe f8 9d bb 3a d0 05 3d
       -0.025452845 -0.0007955552 -0.004820942 0.032669283
000050 7b de 62 3c f8 19 4f 3c fc 4a de 3c 35 f6 a5 bc
       0.013846989 0.012640469 0.027135365 -0.020259002
000060 c2 7a 0d 3d 35 00 bd bc 86 32 26 bd b9 0d 30 3c
       0.0345409 -0.023071388 -0.040575527 0.010745459
000070 a2 73 da bc ea a1 bb 3c 37 40 b3 3c 20 f2 fc bc
       -0.026666466 0.022904355 0.021881206 -0.030877173
000080 08 43 ee 3c 7c b9 9b 3c 90 7c b0 bc 7a e1 3c 3d
       0.029084697 0.019009344 -0.021543771 0.04611347
000090 f7 af 12 bc 27 8a 64 3c 91 9f 32 3c 68 3c c6 bc
       -0.008953086 0.013948954 0.010902301 -0.024198726
0000a0 18 4b 17 bc d6 6c de 3c 61 3d c7 3c 32 03 64 3c
       -0.009234212 0.027151506 0.02432126 0.013916777
0000b0 2d e7 03 3c 66 b8 a3 bc 9e 05 be 3c 9a 68 c5 bc
       0.008050722 -0.019985389 0.023196038 -0.02409773
0000c0 73 ba 0e bd 48 2c 2d bc 82 cc dc bc e8 ae cb 3c
       -0.03484578 -0.0105696395 -0.026952986 0.024863675
0000d0 54 b4 7c bc 52 6d db 3c 98 78 71 3c d1 b9 dd 3c
       -0.015423853 0.026785526 0.014738224 0.027066143
0000e0 d1 d7 e9 3c 14 6b 4a 3c 6c e3 0d 3d 0a 4a 12 3d
       0.028545292 0.012354631 0.034640715 0.03571514
0000f0 f2 4c cd bc 7b c9 80 bc c7 2e a2 bc 21 ae 20 bc
       -0.025061104 -0.015721073 -0.019797696 -0.009807141
000100 62 93 0a 3d 59 5a 2b bc cb 5b e3 bc c6 03 ae bc
       0.03383196 -0.010458552 -0.027753731 -0.021242034
000110 13 64 8e 3c 27 3b 96 bc f9 92 38 3c 95 3c c5 bc
       0.017381703 -0.018338753 0.01126551 -0.02407674
000120 af 6a d4 bc 1a ca 1e bc 9c 69 97 bc 22 44 d4 3c
       -0.025929777 -0.009691739 -0.018482976 0.025911395
000130 41 0d f2 bc a9 3c 92 3c b8 36 63 3c 15 8f 42 3c
       -0.029547336 0.01785119 0.013868026 0.011874934
000140 33 62 92 bc 0b e4 bb bc 49 b6 81 3c fd 38 fb 3c
       -0.01786909 -0.022935888 0.01583399 0.030666823
000150 69 58 e1 bc 29 05 d8 3c 1f dc c3 3c 4e d0 87 bc
       -0.027507978 0.026369648 0.023908673 -0.01657882
000160 41 ed 29 bc 5a a4 cb 3c 7d e6 0e bd c0 77 91 bc
       -0.010371507 0.024858642 -0.03488778 -0.017757297
000170 a5 11 fb bc a5 5e 48 3c 15 97 3b 3d f7 e9 a8 bc
       -0.030648062 0.012229596 0.04579838 -0.020619376
000180 8d bf af 3c ac 2e aa 3c b8 48 7a bc 5e 31 6b 3c
       0.021453643 0.020774208 -0.015276127 0.014355032
000190 18 c5 f1 3c 7e 4a 6a 3c ee 0b 3d bb 87 9a 60 3c
       0.029512927 0.014299987 -0.0028846222 0.013708717
0001a0 a5 96 04 bd 7a 78 04 bd 3b 45 af bc 2a 86 d8 bc
       -0.03237023 -0.032341458 -0.021395316 -0.026431162
0001b0 98 97 14 3d a6 0a c6 3c bb a8 9d bc ff ed 19 bc
       0.036277384 0.024175 -0.019245496 -0.009395122
0001c0 db 29 e8 3c fc 9d 09 3d 4b ca bd 3c b6 cf 9a bc
       0.02834027 0.03359793 0.02316775 -0.018897872
0001d0 4d bf c6 bc 85 6e 93 3c c9 74 c0 bc bf 0d ad bc
       -0.024261141 0.017997036 -0.023493188 -0.021124719
0001e0 ab cc 7a bb da bf 10 bd 85 d0 3e 3c b1 a1 17 3d
       -0.0038268964 -0.035339214 0.011646395 0.037019435
0001f0 cf eb 1b 3c 01 4f 53 bc f0 a6 d7 3c 3d 47 0f bd
       0.00951667 -0.012897254 0.02632472 -0.034980047
000200 9f 8f 9f 3c fe b4 de 3c 48 9b 93 3c 4e c2 dd bc
       0.019477664 0.027185913 0.01801838 -0.02707019
000210 87 d4 b8 bc f2 7e 24 bc 4c 58 ec bc bb de 1b bc
       -0.022562278 -0.010040032 -0.028850697 -0.009513552
000220 fa b2 68 3c e1 c0 55 bc 60 1c ac bc 4c e7 84 bc
       0.014202828 -0.013046474 -0.021009624 -0.016223572
000230 f9 5b 18 3c 4f 85 de bc 41 9f b2 bc b3 14 3f bc
       0.009299272 -0.027163176 -0.021804454 -0.01166265
000240 01 60 0a bd 74 f4 c7 3c b3 cd c3 3c c5 c9 d4 bc
       -0.033782963 0.024408557 0.023901796 -0.025975117
000250 69 c2 bc bc 1b 40 f5 3c 90 2c d7 3c b2 c0 8c 3c
       -0.02304192 0.029937794 0.026266366 0.017181728
000260 38 bd cb bc 46 a7 37 3c eb a4 98 3c 82 fe d0 3a
       -0.0248705 0.011209315 0.018633327 0.001594499
000270 8e b5 e5 bc de 18 e6 3c f2 18 de 3b 3e c7 37 bc
       -0.028040674 0.02808803 0.006777876 -0.011216937
000280 79 ab 00 bd 7a 2b 66 3c a6 ee ba bb f6 00 02 3d
       -0.03141353 0.014048452 -0.0057047186 0.031739198
000290 d8 03 1f bc e4 bc 0d 3d 86 93 41 3c 88 7d cc 3c
       -0.009705506 0.03460397 0.0118149575 0.024962202
0002a0 51 94 df 3c 9a 6c bc bc 9f 51 dc 3c 43 88 f1 bc
       0.027292402 -0.023001004 0.026894389 -0.02948392
0002b0 9d c1 20 3c 3b 20 04 3d 23 bd a7 bc e7 d7 bf 3c
       0.009811786 0.0322573 -0.02047593 0.02341838
0002c0 40 b2 cf 3c 81 b9 2a 3c f1 97 f9 3c 21 25 0b 3c
       0.02535355 0.010420204 0.03046796 0.008492739
0002d0 2e fd b4 bc 5c 91 ee bc f6 e8 8d 3c 21 94 d3 3c
       -0.022093382 -0.029122047 0.017322998 0.02582747
0002e0 4b 7f 9a 3c e0 a9 a2 3c 17 9e df 3c 11 8f 6d 3c
       0.018859526 0.019856393 0.027297063 0.014499442
0002f0 dc ea 93 3c 51 b4 2c 3c 2b d8 0c bd 58 7b 0c bd
       0.018056326 0.010541038 -0.03438584 -0.034297317
000300 db 14 3f bc ce ac 0b bd 9d 08 79 3c 87 0f 5a bc
       -0.011662687 -0.034100346 0.0151998075 -0.013309366
000310 4d 77 d5 bc 92 87 d4 bc b9 37 88 3c c7 b6 cf bc
       -0.026057864 -0.025943551 0.016628133 -0.02535571
000320 5c 56 b3 bc cf 21 0b 3d c0 e2 1f 3c 8c f2 80 3c
       -0.021891765 0.03396779 0.009758651 0.015740655
000330 c5 31 a5 bc c5 a5 a6 bc fd 44 2b 3c ca 84 82 bc
       -0.020165334 -0.020342717 0.01045346 -0.01593246
000340 03 ab e5 3c 73 16 07 bc 5f 45 d1 bc 23 8e df 3c
       0.028035646 -0.008245098 -0.025545774 0.027289456
000350 c9 85 50 3c e1 a5 35 bc c9 bd 15 bd e1 0d 2e bc
       0.012727209 -0.011086912 -0.036557946 -0.010623426
000360 eb bd b0 bc 3a b0 17 3c 1e 7d f1 3c 1e 70 8d 3b
       -0.021574935 0.009258324 0.029478606 0.004316344
000370 b5 4d 2b 3c 6e 66 f5 3c 4c 8c c9 3c 5a 59 3b 3c
       0.0104555385 0.029956069 0.024603032 0.011434877
000380 11 bc 0f bd cc 37 d6 3c 96 57 d7 bc bc 23 13 3c
       -0.035091463 0.026149653 -0.026286881 0.008980688
000390 85 7e 9e 3c 1d 62 cd bc 40 5e 89 3b ec 05 93 3c
       0.019347439 -0.025071198 0.0041921437 0.01794716
0003a0 af 14 bd bc 6c 23 50 bc 9e f3 89 bc ef 87 ca 3c
       -0.023081152 -0.012703758 -0.016839799 0.024723021
0003b0 47 f1 d1 3c ae ff 89 bc 2d b3 d2 3c ed b4 89 3c
       0.025627745 -0.01684555 0.025720203 0.016809905
0003c0 66 c1 ae 3c 5d 10 fd 3c 5f 3c 05 3d 65 4b fc bc
       0.021332454 0.030891592 0.032528277 -0.03079767
0003d0 2b 42 43 bc aa 9c 71 3c ef f4 fc bc 21 a2 03 3d
       -0.011917631 0.014746824 -0.030878512 0.03213704
0003e0 fe 53 66 bc b8 a6 e4 bc 5b 3c 44 3c 5d 27 e2 3c
       -0.014058111 -0.027911529 0.0119772805 0.02760666
0003f0 71 f9 b1 3c 53 b8 0b bc 9d f0 be bc 99 e8 a6 bc
       0.021725388 -0.008527833 -0.023308093 -0.020374583
